experiments_batchsize32/best_model.pt (torch, 45476 bytes, 7 tensors)

seq.0.weight f4 [3, 3, 8, 8]
0	0x3d59b5a9	0.05315176
1	0xbdcc0a38	-0.099628866
2	0x3c442640	0.01197201
3	0x3d8e7ee7	0.069577985
4	0xbe114552	-0.141866
5	0xbcbb9fc7	-0.022903336
6	0x3da590bd	0.08084247
7	0xbd1a40a7	-0.037659314
8	0xbe372e4e	-0.17888758
9	0x3e4c367f	0.19942664
10	0x3de966a7	0.113965325
11	0x3e31833f	0.17335223
12	0xbd974645	-0.0738645
13	0x3dc74208	0.09729391
14	0xbdea14fa	-0.11429782
15	0x3dc63d64	0.09679678
16	0xbccc0791	-0.024905952
17	0x3e3d41cd	0.18482132
18	0x3d547874	0.051872686
19	0x3df0ee38	0.117641866
20	0xbd5e1a41	-0.054224256
21	0x3e41bfd2	0.1892083
22	0xbd65fc40	-0.056148767
23	0x3e49eff7	0.19720446
24	0xbe2fd00b	-0.17169206
25	0xbdd6d6b6	-0.104901716
26	0xbe26fa01	-0.16306306
27	0xbe1fdf1d	-0.15612455
28	0xbe07b0a5	-0.13250978
29	0xbcc3c65a	-0.023898292
30	0xbdf621af	-0.120181434
31	0x3d451a59	0.04812083
32	0xbc96383e	-0.018337365
33	0xbe0835c9	-0.13301767
34	0xbc9ac38b	-0.01889207
35	0xbc88551d	-0.016642148
36	0x3d5413af	0.051776584
37	0x3dae2df3	0.08504858
38	0xbca0b385	-0.019616852
39	0x3cb95cbf	0.022627233
40	0x3e1b9a6e	0.15195629
41	0xbc4cc699	-0.012498521
42	0xbdc76b27	-0.097372346
43	0xbe2cb7cb	-0.16866986
44	0xbe3c8768	-0.18411028
45	0x3e1927c7	0.1495658
46	0x3c089281	0.0083357105
47	0xbba9f751	-0.005186953
48	0x3e1cfcb4	0.15330774
49	0x3cac3ef8	0.02102612
50	0x3d5ac890	0.053413928
51	0xbde9f108	-0.11422926
52	0xbd26df55	-0.04074033
53	0xbdc70f24	-0.09719685
54	0xbda41126	-0.08011083
55	0x3d94bf11	0.072630055
56	0xbe024821	-0.12722827
57	0xbb854cd6	-0.0040679974
58	0x3da93d5b	0.08263656
59	0xbe07cbad	-0.1326129
60	0xbdab15a6	-0.083537385
61	0xbd373e18	-0.04473695
62	0xbd7febf9	-0.0624809
63	0x3cf9d9cf	0.030499367
64	0x3dc11325	0.0942748
65	0xbdf7dcc5	-0.12102655
66	0xbdb92871	-0.09040917
67	0x3e05fe56	0.13085303
68	0x3db8f0bc	0.090302914
69	0xbd2c6976	-0.042092763
70	0xbe1c283d	-0.15249725
71	0x3e2d10be	0.16900918
72	0xbe2b2332	-0.16712645
73	0x3e114304	0.1418572
74	0xbbc27c6b	-0.005935242
75	0x3c1c96ec	0.009557467
76	0x3d225863	0.039635073
77	0x3da1df7a	0.07903953
78	0xbdfec73d	-0.124403454
79	0xbb98c7dc	-0.004662497
80	0x3dd1c368	0.10242349
81	0x3de38600	0.11109543
82	0xbd803e36	-0.06261866
83	0x3cd39ef3	0.025832629
84	0xbd0ceeca	-0.034407414
85	0xbd54b63b	-0.0519316
86	0x3d43b457	0.047779407
87	0x3da88829	0.082290955
88	0xbe1bdcb2	-0.15220907
89	0x3e037774	0.12838537
90	0xbe3da745	-0.1852084
91	0x3d5280b1	0.05139226
92	0x3d33c812	0.043891974
93	0x3d986566	0.07441215
94	0x3e0ad4d5	0.13557751
95	0xbe27b9aa	-0.16379419
96	0xbe3d7393	-0.1850112
97	0xbddd2c1e	-0.1079943
98	0xbdaa7866	-0.083237454
99	0x3dbc2acc	0.0918785
100	0xbdba64f5	-0.09101287
101	0x3c1ea9fc	0.009684082
102	0xbddfedf9	-0.109340616
103	0x3e3a35ae	0.1818454
104	0x3d9d330c	0.07675752
105	0x3cf56835	0.029956916
106	0xbd80cc00	-0.0628891
107	0xbd363559	-0.04448447
108	0x3d88978c	0.0666953
109	0xbdd6bb20	-0.1048491
110	0xbb904b8a	-0.004403536
111	0xbe099632	-0.13436201
112	0xbb0c4b22	-0.0021407087
113	0x3e17a504	0.14809042
114	0xbe4307c3	-0.1904593
115	0x3d38c977	0.045114007
116	0xbd814062	-0.06311108
117	0x3dc530bc	0.09628436
118	0x3d9eed22	0.07760073
119	0x3de118b2	0.109910384
120	0x3e315774	0.17318517
121	0x3d09e7f7	0.033668485
122	0xbe22f712	-0.15914562
123	0x3e03e98d	0.12882061
124	0x3da91584	0.08256057
125	0xbe2fb22b	-0.1715781
126	0xbe2b08c0	-0.16702557
127	0xbe019fec	-0.12658662
128	0xbb0b8833	-0.0021290898
129	0x3c79b0d6	0.015239915
130	0xbd9ecb53	-0.07753625
131	0x3dfd7f33	0.12377777
132	0xbe07567d	-0.13216586
133	0xbe100e22	-0.14067891
134	0x3e240421	0.160172
135	0xbd1848cd	-0.037178803
136	0xbe1a118d	-0.15045758
137	0x3d9710f9	0.07376284
138	0x3d5ff518	0.0546771
139	0x3bb1c088	0.005424563
140	0x3e044efc	0.12920755
141	0xbd63476b	-0.05548803
142	0x3e2b25a9	0.16713585
143	0x3e00447b	0.12526123
144	0x3e186919	0.14883842
145	0x3e03330e	0.12812445
146	0xbe249614	-0.16072875
147	0xbdd0810e	-0.10180865
148	0xbcc7e0ea	-0.02439924
149	0xbde4d12c	-0.11172709
150	0xbd34020e	-0.043947272
151	0xbba66e4f	-0.005079068
152	0xbe28966c	-0.16463631
153	0xbe19e188	-0.1502744
154	0xbc9b0b7f	-0.01892638
155	0x3e09ec10	0.13468957
156	0x3d8bd493	0.06827655
157	0x3cc87f0a	0.02447464
158	0xbdcba91d	-0.09944365
159	0x3e47dc41	0.19517614
160	0xbcf72b8e	-0.030172136
161	0xbdfd4551	-0.12366737
162	0x3d22349d	0.039600957
163	0x3dfb4375	0.12268726
164	0x3e1144b3	0.14186363
165	0x3e4d13e6	0.20027122
166	0x3e0bbc99	0.13646163
167	0xbd81e970	-0.06343353
168	0x3e4ae45f	0.19813679
169	0x3e0f2646	0.13979444
170	0x3e07cf26	0.13262615
171	0x3d8ecc46	0.06972556
172	0xbde65ba1	-0.112479456
173	0xbd05be36	-0.032652102
174	0x3c9517c5	0.01819981
175	0x3e1d5b49	0.15366854
176	0x3e0f5eee	0.14001057
177	0x3de6d255	0.112705864
178	0x3e31ec58	0.17375314
179	0xbc4f03cc	-0.012635183
180	0x3e28ac5b	0.16471998
181	0xbe097dc6	-0.13426885
182	0xbdc1b35c	-0.09458038
183	0x3ddda6e0	0.108228445
184	0x3db4a4a9	0.08820469
185	0x3e48a763	0.19595103
186	0x3e263e8d	0.16234799
187	0xbcc43cb5	-0.023954729
188	0xbd2b4454	-0.04181321
189	0xbd926de0	-0.07149863
190	0x3dd8ae96	0.105801746
191	0xbe1b75a2	-0.15181592
192	0xbaa5e29a	-0.0012656034
193	0x3e0adcbb	0.13560764
194	0x3ddffd8a	0.109370306
195	0x3e141855	0.14462407
196	0x3e6f7427	0.23384152
197	0x3d42c135	0.047547538
198	0x3e0eeac5	0.13956745
199	0xbd935b65	-0.071951665
200	0x3e58fc03	0.21189885
201	0x3d032308	0.03201583
202	0x3d15f50e	0.036610655
203	0xbc744d2b	-0.014910976
204	0x3cc6fbf5	0.024290064
205	0x3c015d1d	0.007895735
206	0xbdaae52b	-0.083444916
207	0xbd7f8d27	-0.062390473
208	0x3e05f845	0.13082989
209	0x3defe07b	0.11712738
210	0xbcb8948a	-0.022531766
211	0x3e2f26f2	0.171047
212	0xbd62c23a	-0.05536101
213	0xbd946fb1	-0.07247866
214	0x3cdea218	0.027176902
215	0x3d40e28b	0.04709105
216	0xbc87b43a	-0.01656543
217	0x3df5e8be	0.12007283
218	0xbd640762	-0.055671103
219	0x3c8003b5	0.015626768
220	0xbd288de7	-0.041150954
221	0xbe338aeb	-0.17533462
222	0x3e03adc6	0.12859258
223	0xbd66ff7c	-0.056395993
224	0xbdce0e2f	-0.10061299
225	0x3e2de40a	0.16981521
226	0xbd4b72c8	-0.04967001
227	0x3cefd56f	0.029276578
228	0xbe1893ae	-0.14900085
229	0xbdc8c295	-0.098027386
230	0xbceb5ded	-0.02873131
231	0x3d1046ef	0.035223898
232	0x39d99f2f	0.00041508066
233	0x3d7afcf1	0.06127638
234	0x3e202433	0.15638809
235	0xbe2531c0	-0.1613226
236	0x3d706684	0.058691517
237	0xbe151636	-0.14559254
238	0xbe4048ba	-0.18777743
239	0xbd4dfd66	-0.050290488
240	0x3cf56003	0.029953009
241	0x3e08a12f	0.13342737
242	0x3e6c6021	0.23083545
243	0x3af572c9	0.0018726225
244	0xbde2b4d3	-0.11069646
245	0x3dd945a3	0.10608985
246	0x3e0630d4	0.13104564
247	0xbd806129	-0.06268532
248	0x3e13a92d	0.14420004
249	0xbd5faa31	-0.054605667
250	0x3e8cdfa4	0.27514374
251	0x3de8c269	0.11365206
252	0xbc8dfd8d	-0.017332816
253	0xbd956b56	-0.07295863
254	0xbdf31c8e	-0.11870681
255	0x3e00ea5d	0.12589402

seq.0.bias f4 [3]
0	0xbdda071a	-0.10645886
1	0x39d58be6	0.00040730758
2	0xbde2fbf1	-0.1108321

seq.3.weight f4 [1, 3, 4, 4]
0	0x3e07a402	0.13246158
1	0xbdd7f086	-0.10543923
2	0x3ed1bb48	0.40963197
3	0x3d061abb	0.032740336
4	0xbe8cd9a5	-0.275098
5	0xbe7d0345	-0.24708278
6	0x3e080dd0	0.13286519
7	0x3e77bfa4	0.24194199
8	0x3e46b55b	0.19405119
9	0x3e8aab47	0.270838
10	0xbdff1438	-0.12455028
11	0xbe588d03	-0.21147542
12	0x3db07624	0.086162835
13	0xbe1b1638	-0.15145195
14	0x3ea84fd6	0.3287341
15	0x3e0501fe	0.12989041
16	0x3e908de3	0.2823325
17	0xbe071944	-0.13193232
18	0xbdf551e6	-0.119785115
19	0x3d26c79e	0.040717714
20	0x3e9945f0	0.2993617
21	0x3db0932a	0.08621819
22	0x3e34741e	0.1762242
23	0x3dbf5cce	0.09343873
24	0x3e71b5fd	0.2360458
25	0xbeac0b63	-0.33602437
26	0xbeabf98e	-0.33588833
27	0x3dba622c	0.09100756
28	0xbe2b1a6d	-0.167093
29	0xbe971708	-0.2950976
30	0x3e62e163	0.2215629
31	0xbe2878aa	-0.1645228
32	0x3dec7dcc	0.11547431
33	0xbe83a038	-0.25708175
34	0xbb65c9c8	-0.0035062898
35	0x3e7223d2	0.23646477
36	0x3e16ba47	0.14719497
37	0xbe06eb31	-0.13175656
38	0x3e3d3e20	0.1848073
39	0xbe8e0883	-0.2774087
40	0xbeb9a0ce	-0.36255497
41	0x3e2aaf9a	0.16668549
42	0x3e38f4bd	0.1806211
43	0x3dff0336	0.12451784
44	0x3db23d25	0.08703069
45	0xbe229732	-0.15877989
46	0xbe84e723	-0.25957593
47	0x3ecb9a1d	0.39766017

seq.7.weight f4 [98, 98]
0	0x3e2734ea	0.16328779
1	0x3ea24bba	0.316984
2	0xbe777692	-0.24166325
3	0x3d9f0e4e	0.077664
4	0x3e1a7327	0.1508299
5	0xbdd87fb8	-0.105712354
6	0x3da2cc64	0.07949141
7	0x3d45b5cb	0.048269074
8	0x3cd6f4e5	0.026239822
9	0xbd203d57	-0.039121
10	0x3d6e9fce	0.05825787
11	0xbd705051	-0.058670346
12	0xbe0bf4ac	-0.13667554
13	0xbe0dd8e6	-0.13852271
14	0x3dc9def7	0.0985698
15	0xbe3b0fbd	-0.18267722
16	0x3e02e057	0.12780891
17	0xbd01e24b	-0.03170995
18	0xbe6c85b0	-0.23097873
19	0x3e0a939c	0.13532871
20	0x3e67fb51	0.22654463
21	0x3e38654d	0.18007393
22	0x3d944183	0.07239058
23	0xbdac6be4	-0.08419016
24	0x3d938f0c	0.072050184
25	0xbea3c968	-0.31989598
26	0xbe25a191	-0.16174914
27	0x3df32899	0.11872978
28	0xbea49405	-0.3214418
29	0x3e4cd1ee	0.20001957
30	0x3e00ea10	0.12589288
31	0x3dce3a26	0.10069685
32	0x3d806877	0.06269925
33	0x3e09767d	0.13424106
34	0xbdc93e7a	-0.098263696
35	0x3c5981cf	0.013275578
36	0xbe8b0e23	-0.27159223
37	0xbe87aabb	-0.26497445
38	0xbb1fa1e8	-0.0024357978
39	0xbea1a171	-0.31568483
40	0xbe032112	-0.12805584
41	0xbc5ec6d0	-0.013597205
42	0xbea98764	-0.33111107
43	0xbe556e60	-0.20842886
44	0xbdac5cb9	-0.08416123
45	0xbe390f0f	-0.1807215
46	0x3e32a848	0.17447007
47	0x3db1f7c1	0.086898334
48	0x3bb12c28	0.005406875
49	0x3dd7ce82	0.10537435
50	0xbe1ddaef	-0.15415548
51	0x3e0ace55	0.13555272
52	0xbe1b7b08	-0.15183651
53	0x3dda45a7	0.106578164
54	0x3e818dcd	0.25303498
55	0xbe222ac5	-0.15836628
56	0xbeba9e20	-0.36448765
57	0xbdb7e133	-0.089785
58	0xbe734743	-0.23757653
59	0xbe4b59b2	-0.19858435
60	0x3d8850fe	0.06656073
61	0x3de6515f	0.11245989
62	0x3da930e4	0.08261278
63	0x3d32b932	0.043633647
64	0x3e17457b	0.14772598
65	0x3aaa5fbd	0.0012998503
66	0x3e0d573a	0.13802806
67	0xbdaa8cc0	-0.08327627
68	0xbc6868aa	-0.01418511
69	0x3d8a72f3	0.06760206
70	0xbee3c54f	-0.44486472
71	0x3e3ec95c	0.186315
72	0x3bea07f5	0.007142062
73	0x3e5679c1	0.20944883
74	0xbcae1cc5	-0.021253953
75	0x3d5d7ca2	0.054073937
76	0x3d4e4f41	0.05036855
77	0xbdec5603	-0.11539843
78	0x3cb5677e	0.022144075
79	0x3e79fef3	0.24413662
80	0x3e0320b1	0.1280544
81	0x3dbe5142	0.092928424
82	0x3df4e482	0.11957647
83	0x3d948d02	0.072534576
84	0xbe5a85bc	-0.21340078
85	0xbd1a0cd2	-0.037609883
86	0x3e95fec9	0.29295948
87	0xbdacd66c	-0.08439335
88	0x3dbe668d	0.09296904
89	0xbdf342d3	-0.1187798
90	0x3d68c6ef	0.056830343
91	0xbe500108	-0.20312893
92	0xbd904ffd	-0.070465066
93	0x3dc9256c	0.09821591
94	0x3d094084	0.033508793
95	0xbd20dd06	-0.039273284
96	0xbd8530b1	-0.06503428
97	0x3dec06ab	0.11524709
98	0xbdd95152	-0.10611214
99	0xbd67e656	-0.05661615
100	0xbd7e5009	-0.062088046
101	0xbc909485	-0.017648945
102	0xbe3df673	-0.18551044
103	0x3d9e6905	0.07734875
104	0x3e4a8154	0.19775897
105	0x3e211553	0.15730791
106	0xbe2f6474	-0.17128164
107	0xbe9dd3b1	-0.3082557
108	0xbec59d73	-0.38596687
109	0xbc9c41f0	-0.01907441
110	0x3cb97687	0.022639526
111	0x3e5de097	0.21667705
112	0xbe26c92c	-0.16287678
113	0x3e4b92ad	0.19880171
114	0x3daaeb63	0.08345678
115	0xbe4a42ed	-0.19752093
116	0x3e72ab0b	0.2369806
117	0x3d900ba1	0.07033468
118	0x3e3f3b7e	0.18675038
119	0xbd0b9b63	-0.034083735
120	0xbe356607	-0.17714702
121	0x3dbeae40	0.09310579
122	0xbe6fca3a	-0.23416987
123	0xbe3a691a	-0.18204156
124	0x3e9a3870	0.30121183
125	0x3c8eef4d	0.017448092
126	0x3e139e8b	0.14415948
127	0x3e81fbc6	0.253874
128	0xbe1f8ab4	-0.15580255
129	0x3e91d802	0.28485113
130	0xbe1889c4	-0.14896303
131	0xbd547253	-0.05186684
132	0x3e73edfd	0.23821254
133	0x3d8d53f3	0.06900778
134	0xbd5c37d6	-0.053764187
135	0xbe40ee9c	-0.18841022
136	0xbe94af9f	-0.29040238
137	0xbe2d296a	-0.1691033
138	0x3e4333ef	0.1906278
139	0x3e57e63f	0.21083926
140	0x3e18154f	0.14851879
141	0x3e41f425	0.1894079
142	0x3a30312c	0.00067211944
143	0x3d89f54f	0.06736242
144	0x3c3d84a2	0.011567267
145	0xbe5eb5be	-0.21749017
146	0x3e33fe6a	0.1757752
147	0xbcb10303	-0.021607881
148	0xbe59b16a	-0.21259084
149	0xbe17bdb6	-0.14818463
150	0xbe5ad86e	-0.21371624
151	0x3bbc041e	0.0057377955
152	0x3e5d5622	0.21614888
153	0xbe05b645	-0.13057812
154	0xbe415515	-0.18880112
155	0x3e509273	0.20368366
156	0x3e56b66c	0.20968026
157	0xbcbc9e3d	-0.023024673
158	0xbe880539	-0.26566485
159	0xbe727ace	-0.23679659
160	0xbb70da1e	-0.0036751102
161	0x3e521810	0.20516992
162	0xbe272d47	-0.16325866
163	0x3e830039	0.25586107
164	0x3deb041a	0.11475392
165	0x3c4ac85c	0.012376871
166	0x3dee0113	0.11621299
167	0xbd59db5a	-0.053187706
168	0xbd9dfac6	-0.07713847
169	0xbe63ef9d	-0.22259374
170	0xbe41fbdf	-0.18943737
171	0x3d5edede	0.05441176
172	0xbd0d10e7	-0.034439947
173	0x3d81f989	0.06346423
174	0x3cb334e4	0.021875806
175	0xbe27fa99	-0.16404189
176	0x3b7d4dbd	0.0038651072
177	0x3d7f4f06	0.062331222
178	0x3e350508	0.176777
179	0xbe68da53	-0.22739534
180	0xbd4b65bb	-0.049657565
181	0x3e85b2f9	0.26113108
182	0x3d88590e	0.06657611
183	0x3d899a21	0.06718851
184	0x3d80bdc3	0.06286194
185	0xbe0af3bc	-0.1356954
186	0xbdf76a3e	-0.12080811
187	0x3e582450	0.21107602
188	0x3d815817	0.0631563
189	0x3ddc6cee	0.10762964
190	0xbd1893af	-0.037250217
191	0x3df9f3e1	0.12204719
192	0xbe2fef65	-0.17181166
193	0xbd0f5362	-0.03499163
194	0xbe6f77f5	-0.23385604
195	0xbd648935	-0.055794913
196	0xbda5c720	-0.08094621
197	0xbc0fdd98	-0.008780859
198	0xbe07ce9b	-0.13262407
199	0x3bb621c2	0.0055582235
200	0xbe550b49	-0.20805086
201	0xbd05fa73	-0.03270955
202	0x3dc88d6a	0.097925976
203	0x3db84e8f	0.08999359
204	0x3df4587d	0.1193094
205	0x3e820653	0.2539545
206	0x3e26a092	0.1627219
207	0x3c9cf49b	0.019159606
208	0xbe23cbba	-0.15995684
209	0x3e395c20	0.18101549
210	0x3d51c442	0.051212557
211	0x3e03df3a	0.12878123
212	0xbe946534	-0.28983462
213	0xb9fec506	-0.0004859345
214	0x3caa3e47	0.02078165
215	0x3e240d87	0.16020785
216	0xbe9e624a	-0.30934364
217	0x3ca7e6d2	0.020495806
218	0x3cf079e5	0.029354999
219	0x3d5e5d2c	0.054288074
220	0xbba1d037	-0.004938151
221	0x3d80fa94	0.06297794
222	0xbcf62d43	-0.03005088
223	0xbde9b099	-0.114106365
224	0x3be422d3	0.006962159
225	0x3e4f1ae6	0.20225105
226	0x3caf11ae	0.021370735
227	0x3e41d814	0.18930084
228	0xbe728c86	-0.23686418
229	0xbe3cb8fb	-0.1842994
230	0x3e3b7c34	0.18309098
231	0x3e1b6cb0	0.1517818
232	0x3d2d6a01	0.04233742
233	0x3c982e97	0.018576903
234	0x3e06ede3	0.13176684
235	0x3b89b5eb	0.0042025945
236	0x3d95e3d7	0.073188476
237	0x3cb8bbef	0.022550551
238	0xbc8fe8e5	-0.017567107
239	0x3da65c73	0.08123102
240	0xbe56dcfb	-0.20982735
241	0xbe469e14	-0.1939624
242	0xbd9fb26b	-0.077977024
243	0x3de7abdc	0.113120764
244	0xbe494bd6	-0.19657835
245	0xbcbc9548	-0.023020402
246	0x3ca3f3db	0.02001374
247	0x3e374b27	0.17899762
248	0xbe6ce244	-0.23133188
249	0x3c461a51	0.012091235
250	0x3e3bf31f	0.18354462
251	0xbd1fe176	-0.039033376
252	0x3e3f897f	0.18704794
253	0xbe2db759	-0.16964473
254	0xbd96f853	-0.07371583
255	0x3da5467e	0.08070086

seq.7.bias f4 [98]
0	0x3d938fd7	0.0720517
1	0xbbe438e6	-0.0069647906
2	0x3de55da5	0.11199502
3	0x3db0662e	0.08613239
4	0x3a0bcdeb	0.00053331134
5	0xbdafa0d4	-0.085755974
6	0xbd99be35	-0.07506982
7	0x3dc92e4f	0.09823286
8	0x3b932978	0.0044910274
9	0x3e089f54	0.13342029
10	0xbc42c33d	-0.011887369
11	0xbc14112a	-0.009037295
12	0xbce7dec7	-0.02830447
13	0xbbc2a83d	-0.0059404657
14	0xbd91219c	-0.070864886
15	0x3e0c3a25	0.13694055
16	0xbd80e9b9	-0.06294579
17	0x3dec9ec4	0.1155372
18	0xbb99ca75	-0.004693324
19	0xbddfce56	-0.10928027
20	0x3dcf7c9c	0.10131189
21	0xbc82ee4a	-0.015982766
22	0x3c8c21be	0.017105933
23	0xbc10b730	-0.008832738
24	0x3d675af2	0.056483217
25	0x3e19d97f	0.15024374
26	0x3ddc8452	0.107674256
27	0xbb2a854e	-0.0026019397
28	0xbc93a734	-0.018024065
29	0x3e02b66b	0.127649
30	0x3dcfad92	0.10140528
31	0x3c63c082	0.013900878
32	0xbd7dfd77	-0.0620093
33	0x3dec9ed4	0.115537316
34	0xbe107e3f	-0.14110659
35	0x3e05e94b	0.13077275
36	0x3e0e9569	0.13924183
37	0x3dc2a4f2	0.09504117
38	0x3e0b16db	0.13582937
39	0x3dde6b58	0.10860318
40	0x3defb715	0.11704842
41	0x3db97d46	0.09057097
42	0xbdf77430	-0.12082708
43	0x3ddc0156	0.10742442
44	0xbdd14152	-0.10217537
45	0xbdcc8390	-0.09986031
46	0x3deb0c19	0.11476917
47	0xbd16979e	-0.036765687
48	0xbcf0fe6a	-0.02941819
49	0xbc0398fe	-0.008032082
50	0xbbbb1df7	-0.005710359
51	0x3db39b72	0.08769883
52	0x3d1c5a1b	0.03817187
53	0x3c90c924	0.017674036
54	0x3df07c38	0.11742443
55	0xbdc65ecf	-0.09686052
56	0x3e0cf5af	0.13765596
57	0x3dcb8a05	0.099384345
58	0xbc110b6d	-0.008852822
59	0xbd7fb077	-0.06242415
60	0x3d5f7e67	0.054563906
61	0xbe070d44	-0.13188654
62	0xbda2314b	-0.07919558
63	0xbd2b1e59	-0.04177699
64	0x3da06b24	0.078329355
65	0xbdc85a6e	-0.09782873
66	0x3df10278	0.11768049
67	0x3dbd58d8	0.09245461
68	0xbc3786fb	-0.011201615
69	0x3c3ab0e1	0.01139471
70	0xbdb63149	-0.08896119
71	0xbd24ae00	-0.040205
72	0xbd7d3d31	-0.061825935
73	0xbbd1e072	-0.00640493
74	0xbcd3c056	-0.025848549
75	0x3e05a074	0.1304949
76	0xbe002eb9	-0.12517823
77	0x3e06eaec	0.13175553
78	0x3dbe48c5	0.092912234
79	0xbd5b584f	-0.053551015
80	0xbacd3842	-0.0015657025
81	0x3b77a0c0	0.0037785023
82	0xbd2e55a6	-0.04256215
83	0x3e073f99	0.13207854
84	0x3dd2c528	0.10291511
85	0xbda59c6e	-0.08086477
86	0xbcc4b164	-0.024010368
87	0x3bb32360	0.0054668635
88	0x3dcfdf9f	0.10150074
89	0x3ce6b1ff	0.028161047
90	0x3c1e0be4	0.00964639
91	0x3d871aad	0.06596885
92	0x3dfde1e9	0.123966046
93	0x3dfa7fec	0.122314304
94	0x3dfb1df6	0.12261574
95	0x3d72926a	0.059221663
96	0x3ddbaccb	0.10726317
97	0xbdebad83	-0.11507704

seq.10.weight f4 [2, 98]
0	0x3f2a24d0	0.6646242
1	0x3ed1100c	0.40832555
2	0x3dbeaf21	0.09310747
3	0x3d0cab6b	0.034343164
4	0x3eef1668	0.46696782
5	0x3e3fc399	0.18726958
6	0x3e5845b3	0.21120338
7	0x3d0027df	0.031288024
8	0x3e7561a2	0.23963025
9	0x3d829f29	0.06378014
10	0xbdbaabd3	-0.09114804
11	0xbe748989	-0.2388059
12	0x3e4dd6ac	0.20101422
13	0xbd3c534c	-0.045977876
14	0xbe82e7f7	-0.255676
15	0x3d7527de	0.059852473
16	0x3e4e691d	0.20157285
17	0x3f2fa1c8	0.68606234
18	0x3d1db676	0.038504086
19	0x3ddd6f23	0.10812213
20	0x3e1a8144	0.15088373
21	0x3d37f53d	0.04491161
22	0xbe715c15	-0.23570283
23	0xbcc417a4	-0.023937054
24	0xbe494833	-0.19656448
25	0xbe012437	-0.12611471
26	0x3defd0ce	0.11709748
27	0x3eaaddc2	0.33372313
28	0xbb447708	-0.0029978175
29	0x3d444a7c	0.047922596
30	0x3da14e35	0.07876245
31	0x3ec6be74	0.3881718
32	0xbe92510c	-0.2857746
33	0x3dd7cb9d	0.10536883
34	0x3ee88611	0.45414785
35	0xbd544199	-0.05182037
36	0x3d41d9ae	0.047326736
37	0x3d91d2bd	0.07120273
38	0x3dc20b4e	0.094748124
39	0x3d5ad938	0.053429812
40	0x3cfeefb3	0.031120157
41	0x3d9a6b83	0.075400375
42	0x3e475b52	0.1946843
43	0xbbbc558b	-0.005747502
44	0x3e088b61	0.13334419
45	0xbeab4647	-0.33452055
46	0x3d577ade	0.05260741
47	0x3e6720b2	0.22571066
48	0xbe7868a8	-0.24258673
49	0xbec99c42	-0.39377028
50	0xbe2c1f76	-0.16808876
51	0x3d3ece35	0.046583373
52	0x3e05028e	0.12989256
53	0xbe944d7d	-0.2896537
54	0x3c25ef01	0.010127784
55	0xbec83472	-0.39102513
56	0x3d59bc2a	0.053157963
57	0x3db55e9a	0.088559344
58	0xbe42b614	-0.1901477
59	0xbd2efad8	-0.042719692
60	0x3ee002a7	0.43752024
61	0xbd269bb2	-0.040675826
62	0x3e4a9318	0.19782674
63	0x3dcc7c0e	0.09984599
64	0x3d96b05e	0.07357858
65	0xbe937f56	-0.28808087
66	0x3cac33a6	0.021020722
67	0xbd7e7f9f	-0.062133428
68	0x3e010c98	0.1260246
69	0xbe8ef6bf	-0.27922627
70	0x3db5b549	0.08872468
71	0xbea3d125	-0.31995502
72	0x3e2f0827	0.17092954
73	0x3e8f8015	0.28027406
74	0xbcc0a3a4	-0.02351553
75	0x3d2fa61a	0.042883016
76	0xbe1110af	-0.1416652
77	0xbd00400e	-0.031311087
78	0x3de8334b	0.11337908
79	0x3ea0e0b0	0.31421423
80	0x3e464084	0.19360548
81	0xbeeb7e44	-0.4599477
82	0x3df52934	0.119707495
83	0x3de68ef8	0.11257738
84	0xbdcccc30	-0.09999883
85	0x3ebe476c	0.37163866
86	0x3d6cf1c3	0.05784775
87	0xbef47e98	-0.47752833
88	0xbd191361	-0.037371997
89	0xbe55039b	-0.20802157
90	0xbde124a1	-0.109933145
91	0x3da5ff93	0.081053875
92	0x3da63260	0.08115077
93	0x3d3b08c6	0.045662664
94	0x3d343774	0.043998197
95	0xbe86025f	-0.26173684
96	0x3da84e7e	0.08218096
97	0xbe3bf7d8	-0.18356264
98	0xbe3df6a5	-0.18551119
99	0x3ea72854	0.32647955
100	0x3df1d87c	0.11808869
101	0x3d253046	0.04032924
102	0xbd1a9bad	-0.03774612
103	0xbe1383d9	-0.14405765
104	0xbdd6bf6d	-0.1048573
105	0x3ee393ee	0.444488
106	0x3e35bae1	0.1774707
107	0x3e31a1e3	0.17346911
108	0xbeac4bed	-0.33651677
109	0x3d2bbf84	0.04193069
110	0xbe31a888	-0.17349446
111	0xbe638fd4	-0.22222835
112	0xbea0cb24	-0.31404984
113	0x3dd2db5f	0.10295748
114	0xbd42805a	-0.047485687
115	0x3e1300df	0.14355801
116	0x3e642470	0.22279525
117	0xbe8819b3	-0.26582107
118	0x3e145712	0.1448634
119	0xbd9e40a9	-0.07727177
120	0x3f108ecd	0.56467897
121	0xbc905748	-0.017619744
122	0x3e529d79	0.20567884
123	0x3e385ff8	0.18005359
124	0x3e2578d4	0.16159374
125	0xbd44d535	-0.048054893
126	0xbe2dd228	-0.169747
127	0x3d5e9d2c	0.05434911
128	0x3dd272b1	0.10275782
129	0xbdfbcab0	-0.12294519
130	0xbe9f1ab8	-0.31075072
131	0x3e20b5a2	0.15694287
132	0xbedb6c0c	-0.4285587
133	0x3ea863da	0.3288868
134	0x3e511e61	0.20421745
135	0x3d86d97f	0.06584453
136	0x3e276679	0.16347684
137	0x3e482854	0.19546634
138	0x3d114217	0.03546342
139	0x3d71ee29	0.059065018
140	0xbe7fbf02	-0.24975207
141	0x3e2c11ec	0.16803712
142	0xbf0ffbbb	-0.56243485
143	0xbe7db57f	-0.24776267
144	0x3e20e2d1	0.15711524
145	0xbc322f2c	-0.010875504
146	0x3e8df3d9	0.27725103
147	0x3e3281f1	0.17432381
148	0xbd43ed34	-0.047833636
149	0x3d9d8cc7	0.07692867
150	0x3ec90163	0.3925887
151	0x3e5093f1	0.20368935
152	0x3e0a217d	0.13489337
153	0xbe60b488	-0.21943867
154	0x3e03e385	0.1287976
155	0x3d8ddf8e	0.06927405
156	0xbcc28a8e	-0.023747709
157	0xbeb889a4	-0.3604251
158	0xbde84f80	-0.113432884
159	0xbebb7c55	-0.36618295
160	0xbe0fb178	-0.14032543
161	0xbe2d6fbe	-0.16937158
162	0x3da3949a	0.07987328
163	0xbe185f48	-0.14880097
164	0x3e380442	0.17970374
165	0x3f0e91f9	0.55691487
166	0xbd22258b	-0.039586585
167	0x3e65b246	0.22431287
168	0xbe189679	-0.14901151
169	0x3caf6bee	0.02141377
170	0xbe83da74	-0.25752604
171	0xbd8427b1	-0.06452883
172	0xbd8d4938	-0.06898731
173	0x3d242a9a	0.04007969
174	0xbebdcd67	-0.37070772
175	0x3e072790	0.13198686
176	0x3d9b5ab2	0.07585658
177	0xbeb994dc	-0.36246383
178	0xbe40d860	-0.1883254
179	0x3eceee0d	0.40415993
180	0xbe892e7d	-0.2679328
181	0x3dead84b	0.11467036
182	0x3e5f9230	0.2183311
183	0xbec44a0a	-0.38337737
184	0xbe55ccb7	-0.20878874
185	0x3d5bf75e	0.053702705
186	0x3e233148	0.15936768
187	0x3f041eb2	0.5160934
188	0x3ee61296	0.44936055
189	0x3d527b84	0.051387325
190	0x3da87bef	0.082267635
191	0x3ddcd724	0.10783222
192	0x3e04350d	0.12910862
193	0x3e98607b	0.2976111
194	0x3df4f279	0.119603105
195	0xbe216bda	-0.15763798

seq.10.bias f4 [2]
0	0x3eacb0bd	0.3372859
1	0x3ed0cfe8	0.4078362
