experiments_batchsize/best_model.pt (torch, 45476 bytes, 7 tensors)

seq.0.weight f4 [3, 3, 8, 8]
000000 cb 87 0e 3e a3 06 19 bd 3c 3d 39 be d0 ba b3 bd
       0.13918988 -0.037359845 -0.18089765 -0.08775866
000010 bf d4 16 3e 74 11 66 3c b5 1d 03 3e 9a 2b 7e bd
       0.14729594 0.014042247 0.12804301 -0.0620533
000020 b4 ad 3c be c2 e9 be bd 85 02 6e 3d 84 31 41 3d
       -0.18425637 -0.093219295 0.05810787 0.047166362
000030 e8 06 95 bd 94 db 0b 3e 93 94 d0 3d 9c 3d 16 3e
       -0.07276708 0.13657981 0.10184588 0.1467194
000040 5d ba f5 bc 95 ac ea 3d 81 05 93 3d 1f cf c3 bd
       -0.029996091 0.11458699 0.07178784 -0.095609896
000050 c5 3e 98 bc b4 89 23 be c4 47 8c bd db ed 91 bd
       -0.018584618 -0.15970498 -0.06849626 -0.071254455
000060 e3 dd 23 be 0d 74 9b 3b 6a 24 07 be 99 77 29 be
       -0.16002612 0.004744059 -0.13197485 -0.16549529
000070 8d d8 c6 3d 10 fc a1 bd 7b 34 85 bc 4f 60 82 3d
       0.097092725 -0.07909405 -0.016260376 0.06366026
000080 e9 94 27 be fc fc 64 3d a8 33 6b 3d 08 8d f7 bd
       -0.16365398 0.055905327 0.05742231 -0.120874465
000090 07 35 d0 bb b3 dd b4 3d 1d f7 8d 3c 48 61 fd bd
       -0.0063539776 0.08831348 0.017329747 -0.123720706
0000a0 10 d5 af 3d 76 4b 06 be a1 09 4c 3d ff 32 a4 bd
       0.0858556 -0.13114724 0.04981387 -0.08017539
0000b0 dc 3f 22 3e 28 c8 88 3d 6b e6 a9 bc f0 12 78 3d
       0.15844673 0.06678802 -0.020739755 0.060564935
0000c0 44 96 40 bd c9 e3 bd bd d8 6f a6 3d a7 e8 da 3d
       -0.047018304 -0.09271962 0.08126801 0.10688906
0000d0 18 73 22 3d 67 36 32 be 14 c1 25 3e 6e 0e cb 3d
       0.039660543 -0.17403565 0.16186935 0.099148616
0000e0 9b e5 e8 bc c6 53 56 3d e9 a3 1c be 30 cf 59 3d
       -0.028429797 0.052325986 -0.15296902 0.053176105
0000f0 16 ec 1c be 25 ef 28 be 12 4e d6 bd 0f de 01 3e
       -0.15324435 -0.16497476 -0.104641095 0.12682365
000100 5f d9 23 3e 6c 26 23 3c 80 3a 21 3e 9a 1d d1 bd
       0.16000889 0.009957891 0.15744972 -0.10210724
000110 69 be 1c be f9 25 8b 3d bf 12 fa 3d 0c 59 d3 3d
       -0.1530701 0.06794352 0.12210607 0.10319719
000120 49 cc 34 be 61 68 ea 3d 2c e0 17 be 84 b1 ad 3d
       -0.17656054 0.1144569 -0.14831609 0.08481124
000130 b2 a1 1c 3e 3d 43 06 be 59 12 13 be f3 6b 0b 3d
       0.15296057 -0.13111587 -0.14362468 0.034038495
000140 ed 75 09 be e6 ff d3 3c 2e 7b 8e 3d 2e 01 05 be
       -0.13423891 0.025878858 0.069570884 -0.12988731
000150 c4 e0 40 3c 6a 56 a8 3d e5 02 22 3d a2 a7 0d 3d
       0.011772338 0.08219607 0.03955354 0.034583695
000160 6a dc 1b 3d cd bd 14 bd 28 26 fe 3d c5 61 e2 3c
       0.038052 -0.03631382 0.124096215 0.02763451
000170 f3 d1 1a 3e 3c c3 53 3d 6f 3c 29 be a2 31 35 3e
       0.15119152 0.051699862 -0.1652696 0.17694715
000180 87 f8 76 bd 97 38 ed 3a 07 5c 95 3d 28 36 bb bd
       -0.060295608 0.001809853 0.072929434 -0.09141189
000190 3b 69 25 bd 35 d0 33 3e 16 51 12 be 1a bf 0a 3e
       -0.04038356 0.17559893 -0.14288744 0.13549462
0001a0 59 81 70 bd ca d2 1e be 77 bb f9 3b cb 4d 2a bd
       -0.058717106 -0.15510097 0.0076212245 -0.041578095
0001b0 32 22 84 bc 88 9c 56 bc 33 11 14 3e 49 4e 0e 3e
       -0.016129587 -0.013098843 0.14459686 0.13897051
0001c0 b4 6c 11 39 03 4d 3a 3d 88 66 9d bb 81 63 b6 bd
       0.00013868773 0.0454836 -0.0048034824 -0.089056976
0001d0 c7 26 ef b9 4e 55 25 bd 2b 50 a2 3c 4c 69 24 bd
       -0.00045614524 -0.040364556 0.019813618 -0.04013948
0001e0 06 3e d6 3c 8a de 20 3e f7 89 0f 3e 37 ec 09 be
       0.026152622 0.15709892 0.14017473 -0.13469015
0001f0 64 cb f5 3c d1 90 d2 3d fc 2b 29 be 72 83 f3 bd
       0.03000421 0.10281528 -0.16520685 -0.118903056
000200 23 5b 6a bd c5 ce 1f be 7d e7 99 3d fb 70 d5 3d
       -0.05721582 -0.1560622 0.07514856 0.1042194
000210 a1 90 c2 bd 69 12 58 bd 7e 33 0d bd 4d 1b 45 bd
       -0.09500242 -0.052751932 -0.034472935 -0.04812174
000220 f7 1c 10 3e 75 90 2a ba 49 94 95 bd 4d 52 d9 3d
       0.14073549 -0.0006506511 -0.07303674 0.10611401
000230 75 49 43 bd 0d 40 f3 3d 71 36 b2 3d 7e 83 ce 3c
       -0.047677476 0.11877451 0.0870179 0.025209185
000240 18 9b 1c bd 8b fa ac bd a5 5a 93 bd 68 2b 2a 3b
       -0.038233846 -0.08446225 -0.071950234 0.0025965814
000250 a5 7b 3e 3c 29 dd 04 be 9b 39 0d be b9 4f 9d 3d
       0.011626159 -0.12974991 -0.13791506 0.076812215
000260 b7 3d 06 3e ca 6c 33 3e 8e 3e ec 3d 8d 12 c4 bd
       0.1310948 0.17521968 0.11535369 -0.09573851
000270 e4 ce a1 bd b2 22 28 3e e6 7a 19 be 91 45 42 3d
       -0.079007894 0.16419485 -0.14988288 0.047429625
000280 f4 b8 b9 3d fa 32 9b bc 9c a1 f4 bc 28 ed 98 3c
       0.0906848 -0.018945206 -0.029862218 0.018667772
000290 62 72 ac 3d 18 19 6a 3d b6 cc 25 3e 1d 9b 96 3d
       0.08420254 0.057152838 0.16191372 0.07353804
0002a0 09 28 ce 3d 19 21 29 3d 6f c5 9d 3d 7c bc 88 3d
       0.1006623 0.04129133 0.07703673 0.066765755
0002b0 f9 50 27 3d db 53 28 3e 22 2c 21 3d 39 93 6c 3c
       0.040848706 0.16438238 0.03934873 0.0144393975
0002c0 29 a2 12 be a7 94 4e bd 24 8a 0c be f3 32 c2 bd
       -0.14319672 -0.050434735 -0.13724571 -0.09482374
0002d0 31 8a f5 3d 14 84 1e 3e 88 02 bb bd ed c3 91 bd
       0.119892485 0.15480071 -0.09131342 -0.07117448
0002e0 87 f9 05 ba cd 9a 09 3d 2c b9 dc bd 12 a9 9c bc
       -0.000511073 0.033594895 -0.10777506 -0.019123588
0002f0 e7 20 38 3e 84 03 11 3e 13 58 af 3c f4 9d d1 3d
       0.17981301 0.14161497 0.021404302 0.10235205
000300 b5 e9 59 3d 7d ff 13 3e 7e 42 80 bd 13 8b 44 3c
       0.053201396 0.1445293 -0.062626824 0.0119960485
000310 bc e5 82 3d f9 9e c5 3d d4 e8 8c bd df 6d 5a bd
       0.063914746 0.09649462 -0.06880346 -0.053327437
000320 3c 1b 02 3a 69 9b 18 3e 08 28 41 3d 24 8e f6 3c
       0.00049631647 0.14903034 0.047157317 0.030097075
000330 2b 4b c1 3d 20 2c f9 bd 72 48 3c bc 21 9b e8 bd
       0.09438165 -0.12166619 -0.011491882 -0.113577135
000340 9f 3b 21 be e0 e2 45 3d 7c e6 1b 3c 52 d2 30 3e
       -0.157454 0.048312068 0.009515401 0.17267731
000350 4d da 11 3e 7a 5d 60 3d ac e6 39 3d 90 48 04 3e
       0.14243431 0.054776646 0.045386 0.12918305
000360 f8 a3 84 bd be 3b 20 bd 29 ad 1b 3e f0 37 3e bd
       -0.06476587 -0.039119475 0.15202774 -0.046440065
000370 e9 83 a8 bb 65 aa c6 bd e4 6b 21 3e 94 13 85 3d
       -0.005142678 -0.09700469 0.15763813 0.06497875
000380 e4 26 48 be 78 80 30 be 83 b8 13 3e 37 47 6d 3d
       -0.19546086 -0.17236507 0.14425854 0.057929244
000390 b4 0c 69 3d b4 76 b1 3d 7b 46 32 3e e7 07 a5 3c
       0.05689688 0.08665219 0.17409699 0.02014537
0003a0 db 81 f9 3d 17 ef d7 bd 8e ba c3 bd a0 97 99 bc
       0.12182971 -0.1054365 -0.09557067 -0.018749058
0003b0 b5 4c 11 3e fa f8 0c 3e db 51 39 3e 8b 20 5f 3d
       0.14189418 0.13766852 0.18097632 0.054474395
0003c0 7b b6 bf bd 27 3d c2 bd c7 98 e2 bd a5 b1 0d bd
       -0.09360977 -0.0948432 -0.11064296 -0.034593243
0003d0 fa 84 c8 3b 62 ac ec 3d 82 79 36 3e 58 66 0f 3e
       0.0061193677 0.11556317 0.17819789 0.14003885
0003e0 10 c9 12 3d 66 d9 79 3d 25 a5 a7 3d 46 b7 25 3e
       0.03583628 0.060998343 0.08185796 0.16183195
0003f0 d0 b1 e3 bd a7 fa 26 3e d5 82 d0 3d 7e 20 1a 3c
       -0.111178994 0.16306554 0.10181204 0.009407161

seq.0.bias f4 [3]
000000 ef 6e f6 3b 7d 7c d4 3b 53 8f 46 bc
       0.0075205485 0.0064845667 -0.012119132

seq.3.weight f4 [1, 3, 4, 4]
000000 3d bc 9e 3e 33 32 00 bc 95 bd 9b bd 30 8f 98 3d
       0.3100299 -0.007824468 -0.07604519 0.07449186
000010 05 e6 8b bd 37 28 2f 3d a5 5c 8e be 71 b4 6a 3e
       -0.06830982 0.04276296 -0.27805057 0.22920395
000020 69 3e a9 3d 07 91 5a 3e 78 bb 97 be 13 d1 09 3e
       0.08263857 0.21344386 -0.29635215 0.13458662
000030 19 93 72 3e 5b 6d e9 bc 2a 51 a9 3d 72 b4 26 3d
       0.23688926 -0.028494528 0.08267434 0.04069943
000040 59 eb 89 be af 3c a1 3e aa 1d b0 be d3 00 a6 3e
       -0.2693737 0.3149161 -0.34397632 0.32422504
000050 c5 33 c2 3d ba 8b 63 3e b2 47 15 3e b5 73 ad 3e
       0.094825305 0.2222127 0.14578131 0.3387734
000060 b2 39 7f 3e 9c f2 5e 3e b2 8d 93 bd e3 d0 62 bd
       0.24924353 0.21772236 -0.072047606 -0.05537499
000070 9f 28 17 be 0c 05 5c be 93 b6 92 be 4e 3b fe 3d
       -0.1476159 -0.214863 -0.28654918 0.12413655
000080 71 ca f5 3c df 71 c6 bb b4 c5 94 3e 53 cc 7d 3d
       0.030003758 -0.006056055 0.29057086 0.061962437
000090 4c 40 84 be 9f fc 50 3e 32 52 33 be c9 cb 9e 3e
       -0.25830305 0.20408867 -0.17511824 0.3101485
0000a0 cd fc 49 bc 5d 1e b2 be b2 98 17 bd 3c f5 85 3e
       -0.012328339 -0.3478879 -0.037010856 0.2616366
0000b0 ce d9 2d bb 8a a1 25 3e 7e d2 b3 be 7e 8d 0a be
       -0.0026527527 0.16174904 -0.3512153 -0.13530537

seq.7.weight f4 [98, 98]
000000 5f 98 20 3e 84 83 3a be c6 e2 8f 3d ee fd 9c bc
       0.15683125 -0.18214232 0.070256755 -0.019164052
000010 1b 8a 4a be 29 e6 8a 3e 3b 88 14 3e a6 3e 66 3d
       -0.19779246 0.27128723 0.14505093 0.05621209
000020 f0 0a 8c 3d f9 30 ef bc d8 b4 f2 3c 13 47 27 3d
       0.06838024 -0.029198157 0.029627249 0.040839266
000030 a0 46 22 be 80 31 3a be ea d3 ac bd a6 8f 3f be
       -0.15847254 -0.18182945 -0.08438857 -0.18707141
000040 0e 75 63 be 6a 0d 80 be 82 a4 c6 3d 5b 0c 21 3d
       -0.22212622 -0.25010234 0.09699346 0.039318424
000050 7b ec 0c be ba 9d bd bd cb a6 f4 3c f7 5d 52 3e
       -0.13762085 -0.092585996 0.02986469 0.20543657
000060 be cd 5e 3e 2c 55 52 be 3c 7c 30 3e 20 a6 6d bd
       0.21758172 -0.20540303 0.17234892 -0.058019757
000070 c1 19 da 3d 17 df 01 3e f2 cd d5 b9 6c 2d c6 3d
       0.106494434 0.12682758 -0.00040779967 0.09676632
000080 5b 06 5c 3e a3 dc 91 bc 50 9a 08 be 32 27 47 be
       0.214868 -0.017805403 -0.13340116 -0.19448546
000090 64 ad bb 3c ba 52 da bc 21 3a a7 3d 40 25 3e be
       0.022909828 -0.026650775 0.08165384 -0.18568897
0000a0 2f 11 79 be 42 00 13 be 83 8e 78 3e 74 43 19 3e
       -0.24322961 -0.14355567 0.24273114 0.14967138
0000b0 5d 10 44 3b ef d0 33 be 4c 02 68 3e 5c d7 14 3e
       0.002991698 -0.1756017 0.22657126 0.14535278
0000c0 12 0d f1 bd 39 72 91 3e ca ec 1a be f4 dc f6 bb
       -0.11770071 0.28407457 -0.1512939 -0.007533664
0000d0 33 1b 05 3e 2a 45 f0 3d 93 3e 9f bd 7e 85 d4 bd
       0.12998657 0.11731942 -0.07775607 -0.10377024
0000e0 5f 30 de bd ed d5 5c be 3f 53 74 3d 95 9b 17 3e
       -0.1084907 -0.21565981 0.059649702 0.14805444
0000f0 82 1c 25 be 47 61 50 be 12 17 05 3e ba f0 35 bc
       -0.16124156 -0.20349608 0.12997082 -0.011104757
000100 10 b0 8d bc 73 3d 06 3e 97 a3 b2 bb 7a 0e 2a 3e
       -0.017295867 0.13109379 -0.0054516303 0.16607085
000110 38 46 7b be d9 29 3b bd fb 6f 26 3e b0 69 b2 3d
       -0.24538505 -0.045694206 0.16253655 0.087115645
000120 af 9f a3 3c 2b a0 56 be d0 b7 96 3d 7e af 08 3e
       0.019973604 -0.20959537 0.07359278 0.13348195
000130 c5 b0 4b be 2c aa 86 3e 66 09 f2 bd 68 d4 7e be
       -0.19891651 0.26301706 -0.11818199 -0.24885714
000140 f0 6a 9b bd 4e 94 78 3e b6 dc 47 3e af 38 b9 3d
       -0.07588756 0.24275324 0.19517788 0.09044015
000150 18 af 2f be 94 5d 75 bc f4 07 74 be 5c 86 6b 3e
       -0.17156637 -0.014975924 -0.23831159 0.23000473
000160 5f 56 ac 3d 43 17 65 3e 50 9b d5 3c 52 43 f9 3d
       0.084149115 0.22372155 0.026075035 0.121710435
000170 4f fc 5e be 56 9b 48 3e 51 f1 3c 3e 40 21 92 3d
       -0.21775936 0.19590506 0.1845143 0.07135248
000180 a7 76 07 be bb 99 e0 3d f0 ab 0b 3d 11 1c 84 bd
       -0.13228856 0.10966822 0.03409952 -0.06450666
000190 4c 72 45 bd 50 91 2c be f5 3a 74 3e 13 cc 6e 3e
       -0.048204705 -0.16852307 0.23850615 0.23320036
0001a0 7d 3c 92 bd 8b 6c 80 be 68 3b 90 3d fe 90 95 bd
       -0.071404435 -0.25082812 0.07042581 -0.07303046
0001b0 fc 0b 43 be 65 a0 59 3e 51 fc 5c be b6 ac 29 be
       -0.1904754 0.21252592 -0.21580626 -0.1656979
0001c0 12 15 82 3d 01 6d 4c be d6 5c 08 be 57 fe 02 be
       0.06351675 -0.19963457 -0.13316664 -0.12792335
0001d0 16 52 f3 bd 6f b0 0a 3e a8 38 75 be b9 68 e5 3c
       -0.11880891 0.13543867 -0.23947394 0.028004037
0001e0 b2 6f 75 bd d6 9b 49 be 6f 46 b6 3d c6 a2 1d be
       -0.059920974 -0.19688353 0.08900153 -0.15394124
0001f0 ab 1d 89 bd d9 df 9e 3c be 6e 7a be 85 e3 e7 3c
       -0.06695112 0.019393848 -0.24456307 0.028306732
000200 77 13 b3 bb f5 ef 10 bd 9b e1 87 3c 95 5b 6d 3d
       -0.005464967 -0.03538509 0.01658707 0.057948668
000210 be 40 48 be 60 8e c0 3d 60 d9 38 3d ed e2 3c 3e
       -0.19555947 0.09402156 0.04512918 0.1844594
000220 8b 07 ba bd 23 dc 45 3d 87 1b 3b 3e 70 ad 3e 3e
       -0.0908347 0.04830564 0.1827222 0.18620849
000230 d9 f5 4d be 36 6c 68 be ea 90 85 bc 9f 2e a6 3c
       -0.20113315 -0.22697529 -0.016304452 0.020285903
000240 4b 33 8c 3b 1e ef 4b be 24 66 e0 bb c2 c0 63 be
       0.0042785755 -0.19915435 -0.0068481136 -0.222415
000250 0d 46 08 3e 65 9b 27 be a2 d4 45 3e 4b a8 6a be
       0.13307972 -0.16367872 0.19319394 -0.22915761
000260 79 5c 2a 3e 17 6a b7 bd ad 94 02 be 34 f5 21 be
       0.16636838 -0.08955782 -0.12752028 -0.15816194
000270 96 cd 97 3d c7 10 23 3e d0 b0 24 be b5 87 d4 3d
       0.07412259 0.15924369 -0.16083074 0.103774466
000280 a7 eb 1a be 47 a5 5d be ce 61 5b 3e de f7 f3 bd
       -0.15128957 -0.2164508 0.21424028 -0.11912511
000290 ca 6b 43 3e 40 38 6e 3c 05 15 0e be 16 f3 e8 bd
       0.19084087 0.014539778 -0.13875206 -0.1137449
0002a0 cc 75 a4 3d 52 89 41 3e 1d dd 78 3d 12 b2 ad bd
       0.080302805 0.1890004 0.060757745 -0.0848123
0002b0 72 e0 26 3e be 6e 7b 3d 08 e7 b1 bd 38 17 6f 3e
       0.16296557 0.06138491 -0.08686644 0.23348701
0002c0 ea 18 53 3e 9e 6e ee bd 03 2b 73 3e 80 49 ce 3d
       0.20614973 -0.11642192 0.23746876 0.10072613
0002d0 3b 09 54 3e 27 53 a2 3c 97 07 5b be b6 a3 8e 3d
       0.20706646 0.01981504 -0.21389614 0.06964819
0002e0 6c d6 06 be d2 74 1e 3e ff 22 e4 3d 1a a4 13 be
       -0.13167733 0.15474251 0.111394875 -0.14418069
0002f0 2f 3b a3 3c 67 8c e9 bb 0c 32 b2 bd ce be cb bd
       0.019925682 -0.007127333 -0.08700952 -0.099485025
000300 4b f1 26 3e fe 97 b9 3d bf a9 5f be 96 df 75 be
       0.16302983 0.09062193 -0.21842097 -0.24011073
000310 dd 96 3d 3e 1e 21 47 3e e2 11 1f 3d 6a 78 87 3d
       0.18514581 0.19446227 0.038835414 0.06614764
000320 4d 19 1d 3d 6f 99 c0 bd cb 33 1d bd 7c f4 0a 3c
       0.038354207 -0.09404265 -0.03837947 0.008481141
000330 bf 73 f0 3d 6d 7e 95 3d e2 00 45 bc 1d 48 13 3d
       0.11740827 0.072995044 -0.012024136 0.035957444
000340 00 ff 78 be e5 ad 09 be a4 9a b4 3d 7d ce b7 3a
       -0.24316025 -0.13445242 0.08818558 0.001402333
000350 68 37 1a 3d c6 a8 3a 3e f6 f2 67 be a0 41 60 bd
       0.037650496 0.18228444 -0.22651276 -0.054750085
000360 2e 87 40 3e 52 98 8b bd 6d c6 c9 bb 37 22 13 3e
       0.18801567 -0.06816162 -0.0061576874 0.1436852
000370 30 4e 2b 3d 4a f8 d3 3d ba cb b4 3d 03 63 f8 3b
       0.041822612 0.10350092 0.0882792 0.0075801625
000380 60 d5 51 3d 6e a4 1b 3e bc 66 80 bd 9e 18 7a be
       0.05122888 0.15199444 -0.06269595 -0.24423453
000390 8b 43 53 3e f7 6b b2 3b 71 8f ca bc 95 c5 52 3e
       0.20631234 0.0054449993 -0.024726601 0.20583184
0003a0 71 4c 46 bc 8e e7 0d bc e4 f7 c6 3d c4 8c ff 3d
       -0.012103186 -0.008661164 0.0971525 0.12478021
0003b0 81 48 c6 bb 93 80 8a 3b c3 1f 72 3e b8 c5 56 be
       -0.0060511236 0.004226753 0.23644929 -0.20973861
0003c0 39 95 2b be d2 16 57 3d a3 a6 15 be 61 f6 39 3e
       -0.16756143 0.052511998 -0.14614348 0.18160392
0003d0 f8 fd 35 be 45 16 5c bd 66 94 77 3e ea a8 4d be
       -0.17772663 -0.053732175 0.24177703 -0.20083967
0003e0 88 f8 3c bd 86 13 31 3e cd 9e 57 3d c2 19 3c be
       -0.046135455 0.17292604 0.05264168 -0.18369201
0003f0 e2 da b0 3d 1c 0f 0c be 34 7c 1c be 84 d3 82 bb
       0.086354986 -0.13677639 -0.15281755 -0.0039925

seq.7.bias f4 [98]
000000 a6 0e 59 3d 25 a4 89 bb f2 94 2d 3d c1 2d 0d 3d
       0.052992485 -0.0042004758 0.042378373 0.034467462
000010 26 bf 24 3b de 26 f6 bc 37 b8 a6 3d 35 11 05 38
       0.0025138347 -0.03004783 0.08140605 3.1725696e-05
000020 0e f6 15 bd eb af 3f bc 14 1d 81 bc 20 0e 1c 3c
       -0.03661161 -0.011699657 -0.015760936 0.009524852
000030 79 ee 08 3d 7e 73 64 3d 70 84 80 3d ce 59 51 bc
       0.03343055 0.055774204 0.062752604 -0.012777759
000040 26 43 4e 3d f0 4a 21 3d 8c 28 b9 bb 4e 6a a5 bb
       0.050357006 0.039378107 -0.0056505855 -0.005048073
000050 4a 18 30 bc 7a c6 9e bb 44 41 f6 3c ff c5 99 3a
       -0.010747978 -0.0048454376 0.030060418 0.0011731981
000060 6c da 2f 3c ee 02 23 3d 5c 79 78 bc c4 21 d8 bc
       0.010733228 0.039797716 -0.015165653 -0.026383288
000070 c6 21 ee bb 58 55 d9 3c 37 02 29 bc 05 0f a8 3c
       -0.0072672097 0.026529953 -0.0103154695 0.020514974
000080 5f 15 b2 3b a0 b7 2a 3b 2d 84 f0 bc 6e d5 df 3c
       0.0054346765 0.002604939 -0.029359901 0.02732345
000090 eb 69 f3 bc 6f 9f 0e bd eb 69 fd 3c 31 66 30 3d
       -0.029713592 -0.034820016 0.030934295 0.043066207
0000a0 00 00 00 00 00 00 00 00 ec 14 ce bc 16 fa 05 bd
       0.0 0.0 -0.02515646 -0.032709204
0000b0 7d a3 e0 bc e0 10 15 3d 94 27 1c bb e7 55 d9 3c
       -0.027421707 0.036393046 -0.0023827301 0.02653022
0000c0 02 f2 81 bc 06 aa f1 bb 4f a5 ae bc 00 00 00 00
       -0.015862469 -0.0073750047 -0.02131906 0.0
0000d0 69 9c f4 3c 90 32 2f bb 45 3b a5 bc 57 8a 06 bd
       0.029859738 -0.0026733018 -0.020169863 -0.032846775
0000e0 76 9f 3e 3c 9e 95 98 bc 5e 09 75 37 e3 03 7a bc
       0.011634698 -0.01862603 1.4605319e-05 -0.015259716
0000f0 17 a4 3b bb e3 cb 1e 3d 80 e2 c9 3c 75 c6 c0 3b
       -0.002863174 0.03876866 0.024644136 0.005883033
000100 eb 95 29 bd 96 98 43 bc 00 00 00 00 46 58 09 bc
       -0.04140274 -0.011938235 0.0 -0.008382862
000110 2c fc 20 3d 82 46 7d 3c b4 27 5b bc ed 38 a0 bb
       0.03930299 0.015458705 -0.013376165 -0.0048895986
000120 0c e6 25 3d 00 00 00 00 f6 ca 54 3d a5 cb 03 bc
       0.040502593 0.0 0.05195137 -0.008044158
000130 b4 3b 31 bd 6d e4 b9 bc a3 c9 02 bd 06 c1 25 bd
       -0.043269828 -0.02269193 -0.031930577 -0.040467285
000140 79 86 a3 3b 5e 1a a2 bb 9d 3b 6e 3d 47 7a 51 bc
       0.0049903956 -0.004946991 0.05816232 -0.012785501
000150 2b 63 eb 3c c7 75 09 bc c1 a9 c7 ba 0f b8 e0 bc
       0.02873381 -0.008389897 -0.0015233086 -0.027431516
000160 66 4a 8a 3c 20 37 2a 3d 7e a7 9c 3d 32 7f 81 bb
       0.016881179 0.041556478 0.07649134 -0.0039519304
000170 9b 15 a2 bc 86 9c bb bc 6e 59 08 bd a0 15 f3 3c
       -0.019785693 -0.022901785 -0.03328841 0.029673398
000180 fe 43 73 bc 13 e4 10 3d
       -0.014847754 0.03537376

seq.10.weight f4 [2, 98]
000000 29 5b 57 3d 89 e1 a4 bd 2b 72 e3 3d 1a 75 ff 3d
       0.05257717 -0.0805083 0.1110576 0.12473507
000010 c1 c8 20 3e e9 97 82 be 39 f0 4f 3e 85 52 73 3e
       0.15701582 -0.25506523 0.20306481 0.23761947
000020 ed 28 cd bd 2c b8 16 bd 16 d7 36 3d 77 c6 84 3e
       -0.100175716 -0.036796734 0.044638716 0.25932667
000030 5d 12 28 bd cc 2f 40 3e 0a 09 6c 3e da 44 fb bd
       -0.041033138 0.18768233 0.23050323 -0.12268992
000040 e9 53 3d 3e 29 e4 96 3d b9 68 20 be 9b ae 40 3e
       0.1848904 0.07367737 -0.15664949 0.18816607
000050 c3 82 3f be d1 06 2c be 17 3e ad 3d 4b 60 b7 bd
       -0.18702225 -0.16799475 0.08459108 -0.08953913
000060 27 45 42 be c0 7b 80 3e d8 ce 4e be 4e b9 1e be
       -0.18971692 0.25094414 -0.20196092 -0.15500376
000070 e5 d0 65 bd a3 36 05 3e 4c aa 0a be 92 d4 14 3e
       -0.05610742 0.13009124 -0.13541526 0.14534214
000080 f2 06 f4 3d 47 fb 30 be fd c9 6a 3d 25 2f 6d 3e
       0.11915387 -0.17283355 0.057321537 0.23162515
000090 b2 59 7a 3e e3 6f a8 3d 5f 22 92 3d 86 a2 27 3e
       0.24448279 0.08224466 0.07135462 0.16370592
0000a0 0d 83 c2 3d 32 de 0d 3e c7 ea 4b be b9 7e 51 be
       0.09497652 0.13854292 -0.19913779 -0.20458497
0000b0 70 03 9b be 55 dd 30 3e 30 a8 42 3d e4 c3 67 3d
       -0.3027606 0.17271931 0.047523677 0.0565833
0000c0 e0 e4 47 be 55 06 ea bd c1 74 2e be e7 6e de 3a
       -0.19520903 -0.11426989 -0.17036726 0.0016970307
0000d0 79 32 a8 3c 6f 93 00 be 4c 99 9d 3d 8d 56 e1 bd
       0.02053188 -0.12556241 0.07695255 -0.110028364
0000e0 c4 0c d4 3d 77 55 4b bd 75 40 0e be 1d df 49 be
       0.10353997 -0.049642053 -0.13891776 -0.19714017
0000f0 1a ec 1e bd 7c d1 a3 3c 28 65 b0 bc df 01 48 3e
       -0.038799383 0.01999735 -0.02153261 0.19531964
000100 15 c2 bb 3d a4 50 8a be d4 bc 0e bd ef 04 cd 3d
       0.091678776 -0.2701465 -0.03484805 0.10010707
000110 77 25 25 3e f5 bd 74 3e 0e 50 30 be f8 63 5a be
       0.16127573 0.23900588 -0.17218038 -0.21327198
000120 37 6b 13 3e 86 3c a3 bd a5 52 33 3e b3 a3 37 bd
       0.14396368 -0.07970528 0.17511995 -0.04483385
000130 77 95 44 be 8a 34 85 be 53 ff 31 3d ce f1 9a 3d
       -0.19197641 -0.26016647 0.043456387 0.07565652
000140 d0 bf 36 3e d4 36 74 be 7e f0 1f 3e 7f b5 8b bd
       0.17846608 -0.2384904 0.15619084 -0.06821727
000150 bc 49 5a bd b4 06 65 3e aa 64 c9 bb 4a c5 a3 be
       -0.053292975 0.22365838 -0.0061460333 -0.31986457
000160 bc b1 a0 3e 3f 8d 44 3e ea f8 6f 3e 51 fb 06 be
       0.313856 0.19194506 0.23434797 -0.13181807
000170 07 95 82 3d 51 be 21 be 7f 0c e0 bd be 99 a5 3d
       0.06376081 -0.15795256 -0.109398834 0.080859646
000180 38 5c 38 3e e5 a3 a8 3b b4 28 86 3e 11 4c 14 be
       0.18003929 0.005146491 0.2620293 -0.14482142
000190 10 94 35 3e 50 62 70 3d 20 a1 9a 3d aa 67 7c 3e
       0.17732263 0.058687508 0.075502634 0.2464892
0001a0 03 f6 7c 3e bb 8b 2f be d4 09 10 be a1 ec 0b be
       0.24703221 -0.17143147 -0.14066249 -0.13664486
0001b0 a6 0e 84 bd 2d 24 56 be 84 34 54 3e a6 ba 25 3e
       -0.064481065 -0.20912237 0.20723158 0.16184482
0001c0 73 2c 37 3e a7 c3 c4 bd 04 a4 db 3d c5 e9 27 3e
       0.1788805 -0.0960763 0.10724643 0.1639777
0001d0 64 13 e5 bd b1 7c 6b 3e 3e 2d e0 bd c4 97 27 3d
       -0.11185339 0.22996785 -0.10946129 0.04091622
0001e0 bc 99 40 3e 2b b3 53 3e 12 87 94 3e a6 c0 af 3d
       0.18808645 0.20673816 0.290093 0.08581667
0001f0 cb 58 da 3d 13 7f f5 bd 94 42 eb bd c6 33 f3 3c
       0.10661467 -0.11987128 -0.11487308 0.029687773
000200 67 c6 69 be 64 cf 01 3e ec e8 b6 be 9f 63 61 3e
       -0.2282959 0.1267677 -0.3572458 0.22010659
000210 b6 9b 4b be 84 6d bf be 57 a4 39 be cf 03 7a be
       -0.19883618 -0.3738824 -0.18129097 -0.24415515
000220 a1 6c 31 3e 5d f1 08 3e 39 68 30 3e c6 83 05 3e
       0.17326595 0.13373323 0.17227258 0.13038549
000230 34 e7 8f 3e 6d be 28 be 56 88 b9 bd 13 f2 02 3e
       0.2810608 -0.16478892 -0.09059207 0.12787656
000240 04 e6 34 3e 86 34 25 3e c6 86 3e 3c 72 fa 6b be
       0.17665869 0.16133317 0.011628812 -0.23044756
000250 e8 5b 1b 3d 86 e8 90 3d 2f 8f 2e 3e 3a da af 3d
       0.037929446 0.070756 0.17046808 0.08586545
000260 92 39 75 be 0f b7 95 be 1d 43 27 be fd 45 29 3b
       -0.23947743 -0.29241225 -0.16334195 0.002582907
000270 58 bf 1f 3e 46 10 dc 3d 11 bf 1d 3e 4c 6a 4c 3e
       0.15600336 0.107452914 0.15404917 0.19962424
000280 48 91 72 3e 8c 96 29 3e 55 1d 06 be 4d 00 82 3e
       0.23688233 0.16561335 -0.13097127 0.25390854
000290 44 02 19 3e f5 e3 21 be fb 81 f3 3d 27 43 ab 3d
       0.1494227 -0.15809615 0.11890026 0.08362418
0002a0 51 ee aa 3d 43 83 76 bd ec 59 2f 3e 05 0d 61 bd
       0.083462365 -0.060183775 0.17124146 -0.054944057
0002b0 80 d5 b4 3d 3b 07 3c bd b0 80 97 bd 23 4c 63 3e
       0.088297844 -0.045905333 -0.07397592 0.22197013
0002c0 9f 4f 14 be c9 72 43 be ce 26 22 be 1c 39 05 be
       -0.14483498 -0.19086756 -0.15835115 -0.13010067
0002d0 96 a4 3d 3e 7f c9 07 bd 63 60 47 3e 1f e6 be bd
       0.18519816 -0.033151146 0.19470362 -0.09321236
0002e0 74 3a 19 3e c1 e4 b2 bc 6b 22 ef 3c 10 45 b3 3d
       0.14963704 -0.021837594 0.029191216 0.08753407
0002f0 be 3d 19 3e cb db 30 3e fa 6e af be 6b 8b 8c bd
       0.14964959 0.17271344 -0.34264356 -0.06862529
000300 21 89 47 3d ff a4 91 3e 53 8a 17 be ee d9 45 3e
       0.04871476 0.28446195 -0.1479886 0.19321415

seq.10.bias f4 [2]
000000 90 93 08 3e bd 42 ed 3d
       0.1333754 0.11584995
