experiments_dropout/best_model.pt (torch, 45476 bytes, 7 tensors)

seq.0.weight f4 [3, 3, 8, 8]
000000 cb aa 3f bc 6e 8e c5 bd 1a 0d 78 3d d4 4a 65 3c
       -0.011698435 -0.09646307 0.06055937 0.013994891
000010 64 80 b5 3d b6 0b 2d 3e 74 76 d6 3c b1 2b df 3d
       0.08862379 0.16898999 0.02617953 0.10897005
000020 f0 b2 fa 3d b9 ee 80 bd 34 04 91 bc 30 61 28 be
       0.12241161 -0.06295533 -0.0177022 -0.16443324
000030 b2 10 14 bd f0 cc 95 bd ef 71 d4 bd e3 f2 85 bd
       -0.036148734 -0.07314479 -0.103732936 -0.065404676
000040 fe ef 86 3d 46 5e 17 3e 9c 85 cb 3d d5 f7 b5 3c
       0.065887436 0.14782056 0.09937593 0.022212902
000050 70 15 07 3e dd 0f e4 3d b4 ff ee 3b fe c6 d1 3d
       0.13191772 0.11135838 0.007293666 0.10243033
000060 4b 8e 49 bc 99 f5 63 3d 3a 86 98 3d 12 a9 1c bd
       -0.012301992 0.055654142 0.07447477 -0.038247176
000070 b5 80 33 3e b6 ea c9 3d aa c2 dd bd 0b b9 1a 3b
       0.17529567 0.09859221 -0.10828145 0.002360883
000080 45 24 19 be 56 63 92 3d 91 0e e7 bd aa 5f 1d 3e
       -0.14955242 0.07147853 -0.11282075 0.15368524
000090 68 96 27 bd ae f6 24 3e 19 ba ff 3c 8b 6b 0f 3d
       -0.040914923 0.16109726 0.031216668 0.03501467
0000a0 40 02 8b 3d c4 75 92 bc ba 76 6a bd bb e5 83 bd
       0.067875385 -0.01787842 -0.057242133 -0.06440302
0000b0 bf ae 44 3e 4a 9b 45 3e 1d 20 57 3d 50 e0 c0 3d
       0.19207285 0.1929752 0.05252086 0.09417784
0000c0 95 20 32 be 7e 66 fc 3d f4 80 8b 3d 36 e5 d6 bd
       -0.17395242 0.12324236 0.06811705 -0.10492937
0000d0 aa 9f 28 3e 65 eb 1b 3e 08 26 a6 bc c3 60 07 3e
       0.16467157 0.15226515 -0.020281807 0.13220505
0000e0 e2 0e 01 be 58 21 73 be 5a 88 65 3d ec b2 9e 3d
       -0.12603334 -0.23743188 0.056038238 0.077489704
0000f0 2c 43 23 3e 44 1c 3f bc cc ec 13 3e a6 a4 90 3d
       0.15943593 -0.011664454 0.144458 0.07062654
000100 ba 80 3a be a7 cf ef 3c 2d e0 b6 3d 90 0b e7 3d
       -0.18213168 0.029273821 0.08929477 0.11281502
000110 b2 b2 f2 bd 69 5c 07 be 10 c7 cd 3d 84 7b 77 3d
       -0.1185049 -0.13218845 0.10047734 0.060420528
000120 ff f3 07 3e 03 0e 9e bd 3a d0 c5 3d 46 26 0e be
       0.13276671 -0.07717516 0.09658857 -0.13881788
000130 9c 42 e7 bd eb b6 46 3d b0 b2 7a 3c 70 a1 43 be
       -0.112920016 0.048514288 0.0153013915 -0.19104552
000140 8d fe bf 3c ce 25 8d 3d e1 d2 27 be 8a 9a 09 be
       0.023436809 0.06891976 -0.16389038 -0.13437858
000150 ba 35 90 3d 06 14 08 3e ca cb de bd cd 22 a4 bd
       0.070414975 0.13288888 -0.108787134 -0.0801445
000160 8e 94 cf bd 83 31 fb 3d fb 9a 03 be c7 8f 71 3d
       -0.101357564 0.12265303 -0.12852089 0.058975007
000170 7a b5 27 be 88 4d b5 bd e0 49 80 bc 1b c8 98 bd
       -0.16377822 -0.088526785 -0.015660226 -0.07460042
000180 ea 1c c6 3d a7 db cb bd 65 5e 27 be 0d fe 2d be
       0.09673484 -0.09954005 -0.16344602 -0.16991444
000190 db 78 74 3c ee e3 8d bd ea 2c f5 bc 31 f2 80 3c
       0.014921392 -0.0692824 -0.029928643 0.015740486
0001a0 72 43 75 be 93 8d 30 be 99 57 fb bc 33 1f ca bc
       -0.2395151 -0.17241506 -0.030681418 -0.02467308
0001b0 69 f5 91 3c ae c8 3a 3e b4 c8 f6 bd 29 1c 40 be
       0.017817216 0.18240616 -0.1205 -0.18760742
0001c0 39 4c c8 bd 50 af 34 bc c7 c8 2f bd 99 0d 23 3e
       -0.09780163 -0.011028126 -0.042916086 0.15923156
0001d0 e1 68 9e bd 71 4b 3b 3e d1 dd de bd e5 d2 47 3d
       -0.07734848 0.18290497 -0.10882152 0.04878511
0001e0 eb 13 0a bd 30 02 ce bd d4 64 b8 bd 0f d8 ca bd
       -0.0337104 -0.10059011 -0.090036064 -0.09904491
0001f0 00 e4 03 3e 79 13 06 bc ce d1 93 3d 04 73 1d 3d
       0.12879944 -0.008183354 0.072177514 0.038439766
000200 5e e1 e7 3d 03 0c 1e bc 95 86 9f 3b 93 d4 22 3e
       0.11322282 -0.0096464185 0.0048683384 0.15901403
000210 19 36 21 be c9 ca d6 bc cb 9a 85 3d 84 5d f6 3d
       -0.15743293 -0.026219742 0.06523665 0.120295554
000220 85 fa 3b 3e b2 a2 90 bd 44 87 07 bc 6d 41 64 bd
       0.18357284 -0.07062282 -0.008271996 -0.055726457
000230 43 2a 4c bd 04 10 66 bd d3 9f b0 bd ee 03 0f 3e
       -0.04984499 -0.056167617 -0.08624234 0.13966343
000240 80 8c 0a 3d 8d a2 ef 3d 8f 08 88 3d 94 86 be 3d
       0.033825397 0.11700926 0.066422574 0.093030125
000250 be 69 11 bc ed 9f 50 be fc 9d ea 3c cc 04 1f be
       -0.008875309 -0.20373507 0.028639786 -0.15529174
000260 9d bd 8e 3c 22 30 e9 3d 5f b5 d8 3d 1c bc 66 3d
       0.017424399 0.11386134 0.10581469 0.05633174
000270 20 f0 90 bd 45 34 25 bd 06 b9 ed 3d cc 9a 0f 3d
       -0.0707705 -0.04033305 0.11607556 0.035059735
000280 ec 95 22 3c df 26 17 3e 8c 37 98 bd 62 b0 02 3e
       0.0099234395 0.14760922 -0.0743247 0.12762597
000290 69 ea ee 3c 98 f2 b5 bd 18 2a 89 bd 2d b4 5b 3d
       0.02916451 -0.08884162 -0.06697482 0.053638626
0002a0 14 e0 6a 3d 04 2d 6a bd 81 11 a1 3b 0b 0b 2c 3e
       0.057342604 -0.057171836 0.0049154167 0.16801088
0002b0 a6 a1 32 3e fd 85 b0 3d 87 fe 26 bd 17 46 de bd
       0.17444476 0.08619306 -0.04077008 -0.10853212
0002c0 b2 5c 12 be cf 13 2b 3d 08 18 8d 3d bf 0f 46 3e
       -0.14293173 0.041766938 0.06889349 0.19341944
0002d0 2c f2 8e 3d 01 b4 f9 3d b8 0c 78 bd f2 77 bc 3d
       0.06979784 0.12192536 -0.060559005 0.09202565
0002e0 b3 0f 18 3c e6 08 2c be ca 0f 1d be 69 b1 c4 3d
       0.009281087 -0.1680027 -0.15338054 0.09604151
0002f0 04 ec ea bd 24 3c 2f 3e c6 7c aa 3d eb a5 d3 bd
       -0.11470798 0.17112786 0.0832458 -0.10334381
000300 23 4d a7 3d 68 a9 bc 3d 8d 55 b9 3d eb a0 d9 3b
       0.081690095 0.09211999 0.09049521 0.0066414974
000310 6d 8d d9 3d ad 2e a5 bd 1f 63 09 3e ee 91 a5 bc
       0.10622678 -0.08065543 0.13416718 -0.020211186
000320 dc c3 9a bd 26 2e 1c 3e d7 97 e9 3d c9 18 28 3e
       -0.075568885 0.15251979 0.11405914 0.16415705
000330 77 37 4b 3e 9f f0 32 bd be 83 9c 3c 26 81 53 be
       0.19845377 -0.043686505 0.019105788 -0.20654735
000340 02 01 93 bd 30 60 44 bd 2c fb a7 bc 5b f4 14 be
       -0.071779266 -0.047943294 -0.02050551 -0.14546339
000350 8b 94 12 3e 95 eb 17 bd 38 ed bd 3d 35 43 8c bc
       0.14314477 -0.037089903 0.092737615 -0.01712189
000360 02 2d a7 bd e9 7c 7d 3d 12 a1 13 be 25 b0 49 be
       -0.081628814 0.0618867 -0.14416912 -0.196961
000370 5e dd 72 be fe 5d 25 be fb ad 98 be 64 56 9c be
       -0.23717257 -0.16149136 -0.29820237 -0.3053466
000380 6f c3 c6 3d c8 0d e4 3c ae dc 80 bd d1 de c9 3c
       0.09705245 0.027838603 -0.06292091 0.02464238
000390 0e 93 38 be 35 df 61 bd a3 73 42 be ea 29 9b bd
       -0.18024847 -0.055144507 -0.18989424 -0.07576354
0003a0 b8 16 33 3e 38 63 f1 bd 92 e8 9a bd 3a 23 2c 3e
       0.17489135 -0.117865026 -0.075638905 0.16810313
0003b0 1b b3 8e be 6e 5b ed bd 7e eb ed bd e8 4b 44 be
       -0.27871022 -0.115897045 -0.11617182 -0.19169581
0003c0 d0 d5 00 3d 7c 54 56 3a ef 00 d4 3d 6e 89 a4 3d
       0.031453907 0.00081760413 0.103517406 0.08034025
0003d0 36 8e c0 3c 50 76 64 bd d7 2d 45 be 09 13 4f be
       0.023505311 -0.055776894 -0.19255768 -0.20222105
0003e0 f2 d0 97 bd 08 d5 0c 3e 1d 4a 86 3c d1 bc b3 3d
       -0.074129 0.1375314 0.016392762 0.08776248
0003f0 48 b9 fb bd ed 21 4d 3d 28 4d 38 be a1 2e 34 be
       -0.12291199 0.050081182 -0.17998183 -0.17595913

seq.0.bias f4 [3]
000000 15 dc 04 bc 01 38 4e 3d 0d 87 f4 bd
       -0.008109112 0.05034638 -0.119398214

seq.3.weight f4 [1, 3, 4, 4]
000000 e8 ac 9d 3e 1e c2 65 bd 8f cb 4a 3e 6c ed 95 3c
       0.3079598 -0.056093328 0.19804214 0.018301688
000010 cc a8 39 be ac 85 50 be b0 bd 2d be 03 db 4a 3e
       -0.18130797 -0.20363492 -0.16966891 0.19810109
000020 eb 1c b3 3e 16 8c 1f bd 58 07 54 be 38 d1 d4 bd
       0.34983 -0.038951956 -0.20705926 -0.10391468
000030 d1 4b 71 3e bc 35 83 3e 21 50 a8 3d 47 66 81 be
       0.23564078 0.25626934 0.082184084 -0.25273344
000040 cc b9 08 be 2d 31 c4 be 58 a7 50 be e1 8e ca be
       -0.13352126 -0.38318768 -0.20376337 -0.39562133
000050 65 36 3c bf d9 9e de be e5 c4 ab be 16 5b 65 be
       -0.735205 -0.43480566 -0.33548656 -0.22398028
000060 0e 08 90 3d 86 ba cf be de d6 83 be 50 a2 7f be
       0.07032786 -0.40571994 -0.25749868 -0.24964261
000070 27 0e 9d bc 22 40 d8 bd 76 61 bb be 61 ff c5 be
       -0.019171787 -0.10559107 -0.36597794 -0.386714
000080 6d 37 bf 3e a2 5a 09 be de c5 de bd 86 a5 40 3d
       0.37346974 -0.1341348 -0.10877584 0.047032855
000090 79 b8 87 be 8f 02 33 3d d9 36 6d 3d 79 b6 92 bc
       -0.2650793 0.043703612 0.057913635 -0.017909275
0000a0 be 8b 75 be 99 49 19 3a 29 43 a0 3e a6 24 a1 3c
       -0.23979089 0.0005847454 0.3130124 0.019670796
0000b0 e3 8b a8 bd 7d 2e 14 bd 6d 6e 87 be 6a c1 ae 3e
       -0.08229806 -0.036177147 -0.26451436 0.34131938

seq.7.weight f4 [98, 98]
000000 d7 04 cf bd c6 7f d0 3d e7 1a ce 3d 34 c9 a6 3d
       -0.10108345 0.10180621 0.10063725 0.08143845
000010 f1 b4 95 bd 0b 57 0e 3d 84 b4 b0 3d 43 ed 8f 3d
       -0.073099025 0.03475098 0.086281806 0.07027676
000020 f2 7d 2b 3e e1 ea 5b bc 6e 41 a4 3e 55 74 35 3e
       0.16747263 -0.013422699 0.3208117 0.17720158
000030 11 e1 e3 bd 2f 24 3e be da 16 3d 3e 7c 5f 6d 3d
       -0.111269124 -0.1856849 0.18465748 0.05795239
000040 f2 01 1c 3e c6 82 d0 3d 04 ae ce 3c d2 f4 3b be
       0.15235117 0.10181193 0.025229461 -0.1835511
000050 97 3e 62 3e e1 3e 88 3e 62 d3 7b 3e 76 dc c0 bc
       0.22094189 0.26610473 0.24592355 -0.023542624
000060 bd 8b e6 bd 62 30 cf bb 7a 52 08 3e 5e 33 ff bd
       -0.11257122 -0.0063229064 0.13312712 -0.124609694
000070 2b cd 49 be bf c1 1b 3e 38 ba 3d be eb 2a 6d be
       -0.19707172 0.15210627 -0.18528068 -0.23160903
000080 4b 18 8b 3e 31 34 9e 3e b7 70 51 3e a6 a9 2f bb
       0.27166972 0.30899194 0.20453154 -0.0026804
000090 dc ad 14 3e 36 43 e1 3d 1b 8c 3a 3c 4f e4 49 be
       0.14519447 0.109991476 0.011385943 -0.19715999
0000a0 b0 bf c1 3d bd 37 8e bc 3b 02 91 3e 2d 8c 95 bd
       0.094603896 -0.017360562 0.28322014 -0.07302127
0000b0 cb 65 3a be f6 44 e6 bd e1 2d da ba 9a e3 30 be
       -0.18202893 -0.11243622 -0.0016645753 -0.17274323
0000c0 ee 9d c7 bd cb a0 47 be af 37 62 3e 0f 46 a2 3d
       -0.097469196 -0.19494931 0.22091554 0.07923519
0000d0 12 ea 93 bc f1 07 83 3e 41 b9 33 3e dc 92 0d 3e
       -0.01805595 0.25591996 0.17551138 0.13825554
0000e0 21 83 4c be 51 13 1f 3e 92 0b 60 3e e8 91 01 3e
       -0.19971897 0.15534712 0.21879414 0.12653315
0000f0 cc 41 a0 3d 1e 7a 8f 3e 1d d6 1a be e4 66 67 bc
       0.0782505 0.28022856 -0.1512074 -0.014123652
000100 fe 87 2d be 66 07 cb 3d 99 7c 23 3d 39 89 59 bd
       -0.16946408 0.099135205 0.039913747 -0.05310938
000110 be b1 19 be 99 cf 30 be 76 8a 42 be 74 69 4b be
       -0.1500921 -0.17266692 -0.18998131 -0.19864446
000120 67 00 4f be 38 08 3d 3e 70 07 92 3d cc 33 3a 3e
       -0.20214997 0.18460166 0.07130325 0.18183821
000130 94 11 50 bd ee 5c 5b be 0c 2c 83 bd c4 83 11 be
       -0.050798014 -0.21422169 -0.06404886 -0.14210421
000140 5a fe 1f be 6c c1 a1 bd 2c f9 e3 3c 25 f0 0e 3e
       -0.15624371 -0.078982204 0.027828775 0.13958795
000150 21 46 15 3e 4a b8 00 3e 0f 30 cb bd 9b e2 68 bd
       0.14577533 0.125703 -0.09921276 -0.056856733
000160 6b 1e 46 be 9c 51 87 3e 44 5e 97 3e 1c 53 b8 3a
       -0.19347541 0.2642945 0.29564106 0.0014062854
000170 b7 1b 1c 3c 0a a7 24 3e 8f 06 91 3e 91 be 70 3e
       0.009528092 0.16079345 0.28325316 0.23510195
000180 3d 36 2f 3c 2e b7 9d bc f0 4d 92 bd 5f 77 0f 3e
       0.010694084 -0.019252386 -0.07143772 0.1401038
000190 f1 43 0b 3e ea 20 0c be ac 35 41 3e 16 4e fd bd
       0.13600136 -0.1368443 0.1886813 -0.12368409
0001a0 fa 98 b6 3d 62 80 68 be aa 0e c0 3d 28 f5 82 bb
       0.08915897 -0.22705224 0.09377797 -0.00399651
0001b0 58 5d a2 bd 0d 1d 23 be da f6 77 3d 21 ee ca 3d
       -0.0792796 -0.1592905 0.06053815 0.09908701
0001c0 da 62 85 bd 5b e1 05 be a5 e9 1b be 25 2d 43 3e
       -0.06512995 -0.13074248 -0.15225847 0.1906019
0001d0 09 bb 31 bd b4 f5 31 3e bd fd a3 bc 7b a5 3f 3e
       -0.04339126 0.17378885 -0.020018453 0.1871547
0001e0 82 9e 60 be 62 76 12 3e 3d 57 9b bd 60 14 a0 3d
       -0.21935466 0.14302972 -0.07584999 0.07816386
0001f0 2c 27 32 3d 74 6f de 3d 77 0c 35 3e 2c bd 5d bd
       0.04349439 0.10861102 0.17680536 -0.054135486
000200 e3 6d 80 be 4c cd 9e bd 2a e6 e6 bd 5c d6 f6 3c
       -0.25083837 -0.07754001 -0.11274369 0.030131511
000210 3d d7 cf bc 4b db 40 3e 4a 05 d0 bb 2c e3 7c be
       -0.025371188 0.18833654 -0.0063482868 -0.24696034
000220 89 e8 69 3d 0e 26 f1 3d 54 c5 89 be 2f 78 8b be
       0.05710653 0.117748365 -0.26908362 -0.2724013
000230 3b fe b5 3d c6 97 48 bd fb da 12 bd 6c c3 3f 3e
       0.08886381 -0.048972867 -0.035853367 0.18726891
000240 da 97 57 be c4 54 81 3d bb 26 bb 3d ea ff f9 3d
       -0.2105402 0.06314996 0.091382466 0.12207015
000250 79 ce 84 3d 0a f2 ab 3d 30 27 ab bd 35 1e 1e 3e
       0.06484694 0.08395775 -0.08357084 0.1544121
000260 69 98 67 bd 4c 35 42 3e df aa 6e be 7c d2 db 3c
       -0.056541834 0.18965644 -0.2330737 0.026833765
000270 fc 20 e7 3d b1 1b 22 be 73 7b af 3c df df d7 3c
       0.11285588 -0.15830876 0.02142117 0.026351867
000280 37 f5 b2 bd 6c 42 6b 3d 29 da 6f 3c 43 db 53 be
       -0.08738177 0.05743639 0.014639416 -0.2068911
000290 1c 89 d0 bd d7 3f 7c 3d 3d b9 95 3d 3d 49 f8 bd
       -0.101824015 0.06158432 0.07310722 -0.12123344
0002a0 75 a9 85 3d 28 22 b9 bd 6f 23 a2 3d ac e0 ad 3c
       0.06526462 -0.09039718 0.07916915 0.021225296
0002b0 ff 0f 5c 3d bf 9d 81 bd ed 1a 19 3e 43 c2 01 3d
       0.053726193 -0.06328916 0.14951678 0.031679403
0002c0 8f 7f 0c be be ca 40 3e de 09 61 be 53 ba 9a bc
       -0.13720535 0.1882734 -0.2197642 -0.018887674
0002d0 a9 c6 83 be 04 de 6b be cd ff 56 be 7f 5f 21 3e
       -0.25737503 -0.23033911 -0.20996018 0.15759085
0002e0 ac 8f cf bd 75 76 3f 3e f7 4f e3 bd a3 17 60 be
       -0.10134825 0.18697532 -0.110992365 -0.21884017
0002f0 c3 2f ea bd d8 1e 97 3d 3f 06 e1 bd 2b 53 1a 3e
       -0.11434891 0.0737893 -0.109875195 0.15070789
000300 5d 2b 66 3c 11 52 b6 3c 8f 1c 82 be aa af 14 be
       0.014048425 0.02225593 -0.25412413 -0.14520136
000310 2a 12 92 3d 37 ba 48 bd 44 2b 0a be 7d f4 05 3e
       0.07132371 -0.049005713 -0.13493067 0.13081546
000320 ea c5 27 3d aa 7b c7 bc 1a fb f7 3d 49 4c 63 be
       0.04096023 -0.02435096 0.12108441 -0.22197069
000330 19 d8 f6 bd 9e 2c 00 be e8 90 7b be 86 18 01 3e
       -0.12052936 -0.1251702 -0.24566996 0.12607011
000340 9d 43 8a bd b3 4c 28 bc 78 92 f1 bd 48 50 1b 3e
       -0.067511775 -0.010272193 -0.11795515 0.15167344
000350 97 1b 2b 3e 9c 8c f9 3c 5b 8a 8d 3d a7 7c 3a 3e
       0.16709743 0.030462556 0.06911155 0.18211614
000360 26 4b 61 3e 3a 0f 36 3e 7c e5 c2 3a d3 31 40 3e
       0.22001323 0.17779246 0.0014869417 0.18769006
000370 6c 98 37 3e 20 57 28 be 39 22 43 be e8 6d 85 3d
       0.17929238 -0.16439486 -0.19056024 0.065151036
000380 44 b6 38 be 25 e7 2f 3e d7 b1 c1 3d 2f 22 82 be
       -0.18038279 0.17178018 0.094577484 -0.25416705
000390 97 73 63 be ea 60 82 be b1 e3 72 be 08 a8 e8 bd
       -0.22212063 -0.25464565 -0.2371967 -0.113601744
0003a0 51 3a 8f bd 95 5b f3 3c 65 91 e3 bc d6 4e 91 3e
       -0.06993545 0.029706756 -0.02777929 0.2838046
0003b0 a7 03 58 3d 2c 61 c5 3d 11 32 06 3d cf 1c 7f be
       0.05273786 0.09637675 0.03276259 -0.24913333
0003c0 27 67 a4 3d 72 96 69 bd ce 34 e3 bc 6a ab 09 be
       0.08027487 -0.05702824 -0.02773514 -0.13444296
0003d0 31 66 26 be 84 48 4f be 49 d1 f7 3d 25 da 2e be
       -0.1624992 -0.20242506 0.12100465 -0.17075403
0003e0 ca 8a d4 bd d9 0f 2d 3d ab 17 e6 bc 3e 4c a6 bd
       -0.103780344 0.04225144 -0.028087458 -0.08120011
0003f0 01 18 27 3e 9d 6d 73 be 1c fb 0a be d7 3b 59 3d
       0.1631775 -0.23772283 -0.13572353 0.053035583

seq.7.bias f4 [98]
000000 4d f9 d5 3d 78 fc 5d bd 90 3b 75 bd a1 dc db 3d
       0.10447941 -0.05419585 -0.059871256 0.10735441
000010 47 f8 aa 3c 01 8c 87 3d 76 69 00 3d 4d 17 af 3c
       0.020870341 0.066185005 0.031350575 0.021373415
000020 25 84 c0 3d 24 a9 0b 3e 00 00 00 00 96 72 23 3b
       0.094002046 0.13638741 0.0 0.0024940125
000030 00 00 00 00 8c 21 71 3d 27 2d b8 3d 72 fe 94 bc
       0.0 0.058869883 0.08992987 -0.018187735
000040 56 f5 01 3e 05 48 2e bd aa 3a a5 3d 1b 6b 6d bc
       0.12691244 -0.042549152 0.0806783 -0.014490868
000050 56 71 a3 bd 6e ca 81 bc 83 0d bd 3d 7a 08 4f bd
       -0.079806015 -0.015843596 0.09231093 -0.050545193
000060 39 3d 07 3e 00 00 00 00 73 5f fa 3d 2e c4 d7 3d
       0.13206948 0.0 0.12225237 0.10535465
000070 d4 a2 87 bd 1a ab 8b 3d 87 1f 0e bd 00 00 00 00
       -0.06622854 0.068197444 -0.034698036 0.0
000080 d8 aa f2 bc 45 51 c4 3d cb 75 0a 3d c3 64 e9 3d
       -0.02962248 0.095858134 0.033803742 0.11396172
000090 e9 0e af bc fc 70 7e 3b 8a ad e0 3b 3b da 78 3c
       -0.021369414 0.0038824668 0.006856625 0.015188749
0000a0 da 43 91 3c d4 35 dd 3d c3 07 88 bd 00 00 00 00
       0.01773255 0.108012825 -0.066421054 0.0
0000b0 66 53 3f 3b 74 6e 17 bd 5b 51 02 bd 14 d3 b8 bd
       0.0029193996 -0.03697057 -0.031815868 -0.09024635
0000c0 86 17 8b bc 7c 68 a3 3d 97 3d a9 bc 9b b1 c4 3d
       -0.01697899 0.07978913 -0.020659251 0.09604188
0000d0 92 1d 94 3d ac 30 98 bd 20 3d 12 3e ae 8b 83 bd
       0.072322026 -0.074311584 0.1428113 -0.06423126
0000e0 70 de 6d bd 5c 63 0a bd cf 78 0d 3e 00 00 00 00
       -0.05807346 -0.033786163 0.13815616 0.0
0000f0 fe ae e6 bb 1f f0 27 bd 8b 5c d2 3d c7 37 a2 3a
       -0.0070399037 -0.04100048 0.102715574 0.0012376242
000100 ac 16 bb bc 7e 2a d0 3d 40 d8 22 3d 00 00 00 00
       -0.02283796 0.10164355 0.039757013 0.0
000110 4f 50 65 3d 6d 39 01 3e 49 77 e6 3d f6 41 a1 bc
       0.05598479 0.12619562 0.112532206 -0.019684773
000120 01 2f 19 bd 30 d3 f3 3d 00 00 00 00 e9 36 8e 3d
       -0.037398342 0.11905515 0.0 0.06944067
000130 a5 19 b2 3d 39 5a 9e bc 27 e0 20 bd 77 f0 4c bd
       0.086962976 -0.01933013 -0.03927627 -0.050034013
000140 07 03 6d bd a5 b9 fd 3d 02 83 b3 3d fc ea 02 bd
       -0.057864215 0.123889245 0.08765222 -0.03196238
000150 23 13 d7 bd 85 db bd bc ca 0b 07 3d bd 7d 80 bc
       -0.10501697 -0.023175964 0.032970227 -0.015684957
000160 00 00 00 00 72 e4 48 bc 7f f8 02 3e f0 c0 03 3e
       0.0 -0.012261497 0.12790106 0.12866569
000170 26 6c 4f 3b 97 b8 e8 bd a7 ef e0 3d a0 7b d4 3d
       0.0031650155 -0.11363333 0.1098321 0.10375142
000180 17 10 20 3c b2 0f 55 bd
       0.009769461 -0.05201692

seq.10.weight f4 [2, 98]
000000 9a f0 07 3d f5 bf 35 3d 4b f7 31 be a4 b3 13 3e
       0.03318844 0.044372518 -0.17379491 0.14423996
000010 aa 3a 03 bf 4c 1f a0 3b ee c8 2e 3c fe e7 0a be
       -0.5126139 0.0048865434 0.010668023 -0.1356506
000020 b0 5a 31 3e b6 15 48 3d 74 9d 27 3c 1b 5e 66 3e
       0.17319751 0.04884883 0.010230411 0.22496836
000030 b2 42 f8 bd 08 7a c3 bd db 1f 9d 3d 63 bc 0c 3e
       -0.12122096 -0.0954476 0.076720916 0.13743739
000040 fc 92 0c 3e db 40 11 be 3b 50 2d 3e 60 a4 38 3e
       0.13727945 -0.14184897 0.16925137 0.18031454
000050 36 55 12 3e e0 10 64 be 75 9b 7d 3d 0f cb 51 be
       0.14290318 -0.22272062 0.061915834 -0.20487617
000060 52 52 52 3d 45 e6 a4 bd f9 d5 9d 3d 08 f9 91 3d
       0.051348038 -0.08051733 0.07706828 0.07127577
000070 9a 79 c8 3e a9 dd 3a 3e c9 7b 8f ba 3a 6e 17 be
       0.39155275 0.18248619 -0.0010946925 -0.14788142
000080 78 51 7b 3d f9 c4 c5 3d 37 2d 4d 3e c9 dc 5b 3d
       0.06135699 0.0965671 0.2003678 0.053677354
000090 1a e6 4f 3e e5 00 0b be 10 1f e4 be 1c f9 8d 3e
       0.2030262 -0.1357456 -0.4455495 0.27729118
0000a0 d5 b8 dd bd d0 a0 a9 3d fd d3 b8 3d 88 2c 4d bd
       -0.108262695 0.08282626 0.090248086 -0.050091296
0000b0 3e 73 14 bf 60 dd 9b 3e a5 e8 5d be be 3b 36 be
       -0.57988346 0.30442333 -0.21670778 -0.17796227
0000c0 f0 c4 5b bd 54 39 16 3e af fd fc 3d fe eb 6f 3d
       -0.05365461 0.14670306 0.12353074 0.05857467
0000d0 1f 7b 62 3e 42 60 82 3d 6f 83 d8 3d 42 a7 92 3e
       0.2211728 0.06366016 0.10571944 0.28643233
0000e0 b1 96 2a be 44 05 2b bd e9 19 19 3d 81 15 29 3e
       -0.16659047 -0.04175307 0.037378225 0.1651211
0000f0 c7 16 a4 bd f1 85 e4 3d 04 7d 7f 3e a5 21 02 be
       -0.08012157 0.1115836 0.24950033 -0.12708147
000100 04 e6 21 be 18 e8 13 3e 3c c3 58 3e 70 5c b0 bd
       -0.158104 0.14444005 0.21168226 -0.08611381
000110 4c 3e 57 3e e9 43 76 3d 96 0f fa 3d e4 4a 27 3e
       0.21019858 0.060123358 0.12210004 0.16337162
000120 9f cd a9 be 2e e5 af 3d f6 e4 1b 3e 48 53 e6 3c
       -0.3316469 0.085886344 0.1522406 0.028115883
000130 8a 94 62 3e 91 d3 a9 bd e4 f3 75 3d 57 10 95 be
       0.22126976 -0.08292306 0.060047045 -0.2911403
000140 82 62 08 bd 12 6a fa 3d ee cf 28 bd 4a 1d c4 be
       -0.03329707 0.122272626 -0.041213922 -0.38303596
000150 d8 56 49 be 48 ca d5 bd c8 14 88 be af 37 37 3e
       -0.19662035 -0.10438973 -0.26578355 0.17892335
000160 c0 2d 28 be 0a 07 6e 3e e9 85 19 3e e7 b6 b9 3c
       -0.16423702 0.23244873 0.14992489 0.022670222
000170 70 e0 58 3e e2 b2 0f 3e 77 c6 bb 3d 4a 8f 4d 3d
       0.21179366 0.14033082 0.091687135 0.05018548
000180 5f 7c 57 3e d5 c0 3e 3e 81 70 9d 3d 1c 4b f7 bd
       0.21043538 0.18628247 0.07687474 -0.12074873
000190 cd 85 75 be 11 f3 90 3e 88 3a 2a 3f 2c 13 ff 3d
       -0.23976822 0.28310445 0.6649556 0.124548286
0001a0 b8 c2 f6 3d d1 b9 86 3e 93 75 2f 3e 1a b6 80 3d
       0.120488584 0.26313642 0.17134695 0.06284733
0001b0 b0 59 72 3d f6 a1 39 bd d7 78 16 bd e6 a8 f1 3d
       0.059167564 -0.045320474 -0.036736336 0.11799793
0001c0 e7 59 ec 3d ca fc 50 be fc 7f 14 3e 9f c4 8e be
       0.11540585 -0.20408931 0.14501947 -0.27884385
0001d0 76 08 9f 3c 67 6e b0 be a8 d4 5d be ef 70 1a be
       0.019413214 -0.3445923 -0.21663153 -0.15082143
0001e0 1e 18 27 3e 97 49 85 be ec 2c 95 3d ed 3c 12 be
       0.16317794 -0.26032707 0.07283959 -0.14281054
0001f0 77 28 15 3e 25 bd 98 3e 52 b3 ad be 33 9b 43 3d
       0.14566217 0.29831806 -0.33925873 0.04775543
000200 8d 7d 62 be 30 aa 24 3e d7 53 04 be 18 5c ea 3c
       -0.22118206 0.16080546 -0.12922607 0.028608367
000210 31 7c f6 be 16 a2 3a 3e b0 32 be 3d 6b 90 27 3e
       -0.48141626 0.18225893 0.092870116 0.16363685
000220 be 70 ff 3d 12 71 cc bc 1a 4f a6 3e 97 5d 5e 3e
       0.12472676 -0.02495626 0.32482225 0.21715389
000230 8c e9 57 be 70 e5 d9 bd 4e 59 84 3d 18 8b 94 be
       -0.21085185 -0.10639465 0.06462346 -0.2901237
000240 3f dc 95 3d 8a ba 95 be 99 be 01 be c2 aa 17 3e
       0.07317399 -0.2924388 -0.12670363 0.14811233
000250 7c 0b 84 bc b7 60 52 3d fb 72 8f 3d 7a 55 fa bd
       -0.016118757 0.051361766 0.07004353 -0.122233346
000260 37 62 39 3e 53 a4 88 be 01 32 a6 bd 33 87 0a be
       0.18103872 -0.2668787 -0.08115006 -0.13528137
000270 de fa 4c 3d 16 66 c2 bd 7f 52 86 3e d4 e2 4a be
       0.050043933 -0.094921276 0.26234815 -0.1981309
000280 ff a7 a8 3d 48 3b 5d 3d e2 03 1c bd 27 5d 00 3e
       0.08235168 0.054011613 -0.03808964 0.12535535
000290 f6 2d 8d 3b 36 9f 38 bc f4 5f 22 3c a1 ae 79 3d
       0.0043084575 -0.011268428 0.009910572 0.060957555
0002a0 f1 b0 7f 3d 24 57 db bd 3a 2a ed 3d ee ee 2c 3e
       0.062424604 -0.1070998 0.1158032 0.1688802
0002b0 c9 5c 16 be cf e4 25 3e f0 e2 75 3e 7b 2e 05 be
       -0.14683832 0.16200565 0.24012351 -0.13006012
0002c0 67 73 f8 bd c1 0e 1f bd 2d d9 5d bd b0 cb 22 3e
       -0.12131386 -0.03883243 -0.054162193 0.15898013
0002d0 ee 73 8b 3e 46 a9 05 be bb 8b 4d be 8f 6d b0 3d
       0.27236885 -0.13052854 -0.20072834 0.08614647
0002e0 69 cb bd 3e 06 9e a9 3d 21 c3 38 be 69 72 af bc
       0.37069252 0.08282094 -0.18043186 -0.02141686
0002f0 09 ca c2 3e 8d 1f 95 3e 7b 38 d9 bb 42 9c 7d be
       0.38044766 0.29125634 -0.0066290474 -0.24766639
000300 87 e3 e9 3d da ff b9 3d 48 e5 9b bb 37 1a 8e bd
       0.114203505 0.09082003 -0.004757557 -0.06938594

seq.10.bias f4 [2]
000000 bd e3 7c 3e 1e dc 9a 3e
       0.2469625 0.3024606
